module @pmap__unnamed_wrapped_function_ attributes {mhlo.num_partitions = 1 : i32, mhlo.num_replicas = 4 : i32} {
  func.func public @main(%arg0: tensor<i32> {mhlo.is_same_data_across_replicas = true}, %arg1: tensor<64xf32> {mhlo.is_same_data_across_replicas = true}, %arg2: tensor<64xf32> {mhlo.is_same_data_across_replicas = true}, %arg3: tensor<64xf32> {mhlo.is_same_data_across_replicas = true}, %arg4: tensor<64xf32> {mhlo.is_same_data_across_replicas = true}, %arg5: tensor<256xf32> {mhlo.is_same_data_across_replicas = true}, %arg6: tensor<256xf32> {mhlo.is_same_data_across_replicas = true}, %arg7: tensor<1x1x64x64xf32> {mhlo.is_same_data_across_replicas = true}, %arg8: tensor<3x3x64x64xf32> {mhlo.is_same_data_across_replicas = true}, %arg9: tensor<1x1x64x256xf32> {mhlo.is_same_data_across_replicas = true}, %arg10: tensor<1x1x64x256xf32> {mhlo.is_same_data_across_replicas = true}, %arg11: tensor<256xf32> {mhlo.is_same_data_across_replicas = true}, %arg12: tensor<256xf32> {mhlo.is_same_data_across_replicas = true}, %arg13: tensor<64xf32> {mhlo.is_same_data_across_replicas = true}, %arg14: tensor<64xf32> {mhlo.is_same_data_across_replicas = true}, %arg15: tensor<64xf32> {mhlo.is_same_data_across_replicas = true}, %arg16: tensor<64xf32> {mhlo.is_same_data_across_replicas = true}, %arg17: tensor<256xf32> {mhlo.is_same_data_across_replicas = true}, %arg18: tensor<256xf32> {mhlo.is_same_data_across_replicas = true}, %arg19: tensor<1x1x256x64xf32> {mhlo.is_same_data_across_replicas = true}, %arg20: tensor<3x3x64x64xf32> {mhlo.is_same_data_across_replicas = true}, %arg21: tensor<1x1x64x256xf32> {mhlo.is_same_data_across_replicas = true}, %arg22: tensor<256xf32> {mhlo.is_same_data_across_replicas = true}, %arg23: tensor<256xf32> {mhlo.is_same_data_across_replicas = true}, %arg24: tensor<256xf32> {mhlo.is_same_data_across_replicas = true}, %arg25: tensor<256xf32> {mhlo.is_same_data_across_replicas = true}, %arg26: tensor<1024xf32> {mhlo.is_same_data_across_replicas = true}, %arg27: tensor<1024xf32> {mhlo.is_same_data_across_replicas = true}, %arg28: tensor<1x1x1024x256xf32> {mhlo.is_same_data_across_replicas = true}, %arg29: tensor<3x3x256x256xf32> {mhlo.is_same_data_across_replicas = true}, %arg30: tensor<1x1x256x1024xf32> {mhlo.is_same_data_across_replicas = true}, %arg31: tensor<256xf32> {mhlo.is_same_data_across_replicas = true}, %arg32: tensor<256xf32> {mhlo.is_same_data_across_replicas = true}, %arg33: tensor<256xf32> {mhlo.is_same_data_across_replicas = true}, %arg34: tensor<256xf32> {mhlo.is_same_data_across_replicas = true}, %arg35: tensor<1024xf32> {mhlo.is_same_data_across_replicas = true}, %arg36: tensor<1024xf32> {mhlo.is_same_data_across_replicas = true}, %arg37: tensor<1x1x1024x256xf32> {mhlo.is_same_data_across_replicas = true}, %arg38: tensor<3x3x256x256xf32> {mhlo.is_same_data_across_replicas = true}, %arg39: tensor<1x1x256x1024xf32> {mhlo.is_same_data_across_replicas = true}, %arg40: tensor<256xf32> {mhlo.is_same_data_across_replicas = true}, %arg41: tensor<256xf32> {mhlo.is_same_data_across_replicas = true}, %arg42: tensor<256xf32> {mhlo.is_same_data_across_replicas = true}, %arg43: tensor<256xf32> {mhlo.is_same_data_across_replicas = true}, %arg44: tensor<1024xf32> {mhlo.is_same_data_across_replicas = true}, %arg45: tensor<1024xf32> {mhlo.is_same_data_across_replicas = true}, %arg46: tensor<1x1x1024x256xf32> {mhlo.is_same_data_across_replicas = true}, %arg47: tensor<3x3x256x256xf32> {mhlo.is_same_data_across_replicas = true}, %arg48: tensor<1x1x256x1024xf32> {mhlo.is_same_data_across_replicas = true}, %arg49: tensor<512xf32> {mhlo.is_same_data_across_replicas = true}, %arg50: tensor<512xf32> {mhlo.is_same_data_across_replicas = true}, %arg51: tensor<512xf32> {mhlo.is_same_data_across_replicas = true}, %arg52: tensor<512xf32> {mhlo.is_same_data_across_replicas = true}, %arg53: tensor<2048xf32> {mhlo.is_same_data_across_replicas = true}, %arg54: tensor<2048xf32> {mhlo.is_same_data_across_replicas = true}, %arg55: tensor<1x1x1024x512xf32> {mhlo.is_same_data_across_replicas = true}, %arg56: tensor<3x3x512x512xf32> {mhlo.is_same_data_across_replicas = true}, %arg57: tensor<1x1x512x2048xf32> {mhlo.is_same_data_across_replicas = true}, %arg58: tensor<1x1x1024x2048xf32> {mhlo.is_same_data_across_replicas = true}, %arg59: tensor<2048xf32> {mhlo.is_same_data_across_replicas = true}, %arg60: tensor<2048xf32> {mhlo.is_same_data_across_replicas = true}, %arg61: tensor<512xf32> {mhlo.is_same_data_across_replicas = true}, %arg62: tensor<512xf32> {mhlo.is_same_data_across_replicas = true}, %arg63: tensor<512xf32> {mhlo.is_same_data_across_replicas = true}, %arg64: tensor<512xf32> {mhlo.is_same_data_across_replicas = true}, %arg65: tensor<2048xf32> {mhlo.is_same_data_across_replicas = true}, %arg66: tensor<2048xf32> {mhlo.is_same_data_across_replicas = true}, %arg67: tensor<1x1x2048x512xf32> {mhlo.is_same_data_across_replicas = true}, %arg68: tensor<3x3x512x512xf32> {mhlo.is_same_data_across_replicas = true}, %arg69: tensor<1x1x512x2048xf32> {mhlo.is_same_data_across_replicas = true}, %arg70: tensor<512xf32> {mhlo.is_same_data_across_replicas = true}, %arg71: tensor<512xf32> {mhlo.is_same_data_across_replicas = true}, %arg72: tensor<512xf32> {mhlo.is_same_data_across_replicas = true}, %arg73: tensor<512xf32> {mhlo.is_same_data_across_replicas = true}, %arg74: tensor<2048xf32> {mhlo.is_same_data_across_replicas = true}, %arg75: tensor<2048xf32> {mhlo.is_same_data_across_replicas = true}, %arg76: tensor<1x1x2048x512xf32> {mhlo.is_same_data_across_replicas = true}, %arg77: tensor<3x3x512x512xf32> {mhlo.is_same_data_across_replicas = true}, %arg78: tensor<1x1x512x2048xf32> {mhlo.is_same_data_across_replicas = true}, %arg79: tensor<64xf32> {mhlo.is_same_data_across_replicas = true}, %arg80: tensor<64xf32> {mhlo.is_same_data_across_replicas = true}, %arg81: tensor<64xf32> {mhlo.is_same_data_across_replicas = true}, %arg82: tensor<64xf32> {mhlo.is_same_data_across_replicas = true}, %arg83: tensor<256xf32> {mhlo.is_same_data_across_replicas = true}, %arg84: tensor<256xf32> {mhlo.is_same_data_across_replicas = true}, %arg85: tensor<1x1x256x64xf32> {mhlo.is_same_data_across_replicas = true}, %arg86: tensor<3x3x64x64xf32> {mhlo.is_same_data_across_replicas = true}, %arg87: tensor<1x1x64x256xf32> {mhlo.is_same_data_across_replicas = true}, %arg88: tensor<128xf32> {mhlo.is_same_data_across_replicas = true}, %arg89: tensor<128xf32> {mhlo.is_same_data_across_replicas = true}, %arg90: tensor<128xf32> {mhlo.is_same_data_across_replicas = true}, %arg91: tensor<128xf32> {mhlo.is_same_data_across_replicas = true}, %arg92: tensor<512xf32> {mhlo.is_same_data_across_replicas = true}, %arg93: tensor<512xf32> {mhlo.is_same_data_across_replicas = true}, %arg94: tensor<1x1x256x128xf32> {mhlo.is_same_data_across_replicas = true}, %arg95: tensor<3x3x128x128xf32> {mhlo.is_same_data_across_replicas = true}, %arg96: tensor<1x1x128x512xf32> {mhlo.is_same_data_across_replicas = true}, %arg97: tensor<1x1x256x512xf32> {mhlo.is_same_data_across_replicas = true}, %arg98: tensor<512xf32> {mhlo.is_same_data_across_replicas = true}, %arg99: tensor<512xf32> {mhlo.is_same_data_across_replicas = true}, %arg100: tensor<128xf32> {mhlo.is_same_data_across_replicas = true}, %arg101: tensor<128xf32> {mhlo.is_same_data_across_replicas = true}, %arg102: tensor<128xf32> {mhlo.is_same_data_across_replicas = true}, %arg103: tensor<128xf32> {mhlo.is_same_data_across_replicas = true}, %arg104: tensor<512xf32> {mhlo.is_same_data_across_replicas = true}, %arg105: tensor<512xf32> {mhlo.is_same_data_across_replicas = true}, %arg106: tensor<1x1x512x128xf32> {mhlo.is_same_data_across_replicas = true}, %arg107: tensor<3x3x128x128xf32> {mhlo.is_same_data_across_replicas = true}, %arg108: tensor<1x1x128x512xf32> {mhlo.is_same_data_across_replicas = true}, %arg109: tensor<128xf32> {mhlo.is_same_data_across_replicas = true}, %arg110: tensor<128xf32> {mhlo.is_same_data_across_replicas = true}, %arg111: tensor<128xf32> {mhlo.is_same_data_across_replicas = true}, %arg112: tensor<128xf32> {mhlo.is_same_data_across_replicas = true}, %arg113: tensor<512xf32> {mhlo.is_same_data_across_replicas = true}, %arg114: tensor<512xf32> {mhlo.is_same_data_across_replicas = true}, %arg115: tensor<1x1x512x128xf32> {mhlo.is_same_data_across_replicas = true}, %arg116: tensor<3x3x128x128xf32> {mhlo.is_same_data_across_replicas = true}, %arg117: tensor<1x1x128x512xf32> {mhlo.is_same_data_across_replicas = true}, %arg118: tensor<128xf32> {mhlo.is_same_data_across_replicas = true}, %arg119: tensor<128xf32> {mhlo.is_same_data_across_replicas = true}, %arg120: tensor<128xf32> {mhlo.is_same_data_across_replicas = true}, %arg121: tensor<128xf32> {mhlo.is_same_data_across_replicas = true}, %arg122: tensor<512xf32> {mhlo.is_same_data_across_replicas = true}, %arg123: tensor<512xf32> {mhlo.is_same_data_across_replicas = true}, %arg124: tensor<1x1x512x128xf32> {mhlo.is_same_data_across_replicas = true}, %arg125: tensor<3x3x128x128xf32> {mhlo.is_same_data_across_replicas = true}, %arg126: tensor<1x1x128x512xf32> {mhlo.is_same_data_across_replicas = true}, %arg127: tensor<256xf32> {mhlo.is_same_data_across_replicas = true}, %arg128: tensor<256xf32> {mhlo.is_same_data_across_replicas = true}, %arg129: tensor<256xf32> {mhlo.is_same_data_across_replicas = true}, %arg130: tensor<256xf32> {mhlo.is_same_data_across_replicas = true}, %arg131: tensor<1024xf32> {mhlo.is_same_data_across_replicas = true}, %arg132: tensor<1024xf32> {mhlo.is_same_data_across_replicas = true}, %arg133: tensor<1x1x512x256xf32> {mhlo.is_same_data_across_replicas = true}, %arg134: tensor<3x3x256x256xf32> {mhlo.is_same_data_across_replicas = true}, %arg135: tensor<1x1x256x1024xf32> {mhlo.is_same_data_across_replicas = true}, %arg136: tensor<1x1x512x1024xf32> {mhlo.is_same_data_across_replicas = true}, %arg137: tensor<1024xf32> {mhlo.is_same_data_across_replicas = true}, %arg138: tensor<1024xf32> {mhlo.is_same_data_across_replicas = true}, %arg139: tensor<256xf32> {mhlo.is_same_data_across_replicas = true}, %arg140: tensor<256xf32> {mhlo.is_same_data_across_replicas = true}, %arg141: tensor<256xf32> {mhlo.is_same_data_across_replicas = true}, %arg142: tensor<256xf32> {mhlo.is_same_data_across_replicas = true}, %arg143: tensor<1024xf32> {mhlo.is_same_data_across_replicas = true}, %arg144: tensor<1024xf32> {mhlo.is_same_data_across_replicas = true}, %arg145: tensor<1x1x1024x256xf32> {mhlo.is_same_data_across_replicas = true}, %arg146: tensor<3x3x256x256xf32> {mhlo.is_same_data_across_replicas = true}, %arg147: tensor<1x1x256x1024xf32> {mhlo.is_same_data_across_replicas = true}, %arg148: tensor<256xf32> {mhlo.is_same_data_across_replicas = true}, %arg149: tensor<256xf32> {mhlo.is_same_data_across_replicas = true}, %arg150: tensor<256xf32> {mhlo.is_same_data_across_replicas = true}, %arg151: tensor<256xf32> {mhlo.is_same_data_across_replicas = true}, %arg152: tensor<1024xf32> {mhlo.is_same_data_across_replicas = true}, %arg153: tensor<1024xf32> {mhlo.is_same_data_across_replicas = true}, %arg154: tensor<1x1x1024x256xf32> {mhlo.is_same_data_across_replicas = true}, %arg155: tensor<3x3x256x256xf32> {mhlo.is_same_data_across_replicas = true}, %arg156: tensor<1x1x256x1024xf32> {mhlo.is_same_data_across_replicas = true}, %arg157: tensor<1000xf32> {mhlo.is_same_data_across_replicas = true}, %arg158: tensor<2048x1000xf32> {mhlo.is_same_data_across_replicas = true}, %arg159: tensor<64xf32> {mhlo.is_same_data_across_replicas = true}, %arg160: tensor<64xf32> {mhlo.is_same_data_across_replicas = true}, %arg161: tensor<7x7x3x64xf32> {mhlo.is_same_data_across_replicas = true}, %arg162: tensor<64xf32> {mhlo.is_same_data_across_replicas = true}, %arg163: tensor<64xf32> {mhlo.is_same_data_across_replicas = true}, %arg164: tensor<64xf32> {mhlo.is_same_data_across_replicas = true}, %arg165: tensor<64xf32> {mhlo.is_same_data_across_replicas = true}, %arg166: tensor<256xf32> {mhlo.is_same_data_across_replicas = true}, %arg167: tensor<256xf32> {mhlo.is_same_data_across_replicas = true}, %arg168: tensor<1x1x64x64xf32> {mhlo.is_same_data_across_replicas = true}, %arg169: tensor<3x3x64x64xf32> {mhlo.is_same_data_across_replicas = true}, %arg170: tensor<1x1x64x256xf32> {mhlo.is_same_data_across_replicas = true}, %arg171: tensor<1x1x64x256xf32> {mhlo.is_same_data_across_replicas = true}, %arg172: tensor<256xf32> {mhlo.is_same_data_across_replicas = true}, %arg173: tensor<256xf32> {mhlo.is_same_data_across_replicas = true}, %arg174: tensor<64xf32> {mhlo.is_same_data_across_replicas = true}, %arg175: tensor<64xf32> {mhlo.is_same_data_across_replicas = true}, %arg176: tensor<64xf32> {mhlo.is_same_data_across_replicas = true}, %arg177: tensor<64xf32> {mhlo.is_same_data_across_replicas = true}, %arg178: tensor<256xf32> {mhlo.is_same_data_across_replicas = true}, %arg179: tensor<256xf32> {mhlo.is_same_data_across_replicas = true}, %arg180: tensor<1x1x256x64xf32> {mhlo.is_same_data_across_replicas = true}, %arg181: tensor<3x3x64x64xf32> {mhlo.is_same_data_across_replicas = true}, %arg182: tensor<1x1x64x256xf32> {mhlo.is_same_data_across_replicas = true}, %arg183: tensor<256xf32> {mhlo.is_same_data_across_replicas = true}, %arg184: tensor<256xf32> {mhlo.is_same_data_across_replicas = true}, %arg185: tensor<256xf32> {mhlo.is_same_data_across_replicas = true}, %arg186: tensor<256xf32> {mhlo.is_same_data_across_replicas = true}, %arg187: tensor<1024xf32> {mhlo.is_same_data_across_replicas = true}, %arg188: tensor<1024xf32> {mhlo.is_same_data_across_replicas = true}, %arg189: tensor<1x1x1024x256xf32> {mhlo.is_same_data_across_replicas = true}, %arg190: tensor<3x3x256x256xf32> {mhlo.is_same_data_across_replicas = true}, %arg191: tensor<1x1x256x1024xf32> {mhlo.is_same_data_across_replicas = true}, %arg192: tensor<256xf32> {mhlo.is_same_data_across_replicas = true}, %arg193: tensor<256xf32> {mhlo.is_same_data_across_replicas = true}, %arg194: tensor<256xf32> {mhlo.is_same_data_across_replicas = true}, %arg195: tensor<256xf32> {mhlo.is_same_data_across_replicas = true}, %arg196: tensor<1024xf32> {mhlo.is_same_data_across_replicas = true}, %arg197: tensor<1024xf32> {mhlo.is_same_data_across_replicas = true}, %arg198: tensor<1x1x1024x256xf32> {mhlo.is_same_data_across_replicas = true}, %arg199: tensor<3x3x256x256xf32> {mhlo.is_same_data_across_replicas = true}, %arg200: tensor<1x1x256x1024xf32> {mhlo.is_same_data_across_replicas = true}, %arg201: tensor<256xf32> {mhlo.is_same_data_across_replicas = true}, %arg202: tensor<256xf32> {mhlo.is_same_data_across_replicas = true}, %arg203: tensor<256xf32> {mhlo.is_same_data_across_replicas = true}, %arg204: tensor<256xf32> {mhlo.is_same_data_across_replicas = true}, %arg205: tensor<1024xf32> {mhlo.is_same_data_across_replicas = true}, %arg206: tensor<1024xf32> {mhlo.is_same_data_across_replicas = true}, %arg207: tensor<1x1x1024x256xf32> {mhlo.is_same_data_across_replicas = true}, %arg208: tensor<3x3x256x256xf32> {mhlo.is_same_data_across_replicas = true}, %arg209: tensor<1x1x256x1024xf32> {mhlo.is_same_data_across_replicas = true}, %arg210: tensor<512xf32> {mhlo.is_same_data_across_replicas = true}, %arg211: tensor<512xf32> {mhlo.is_same_data_across_replicas = true}, %arg212: tensor<512xf32> {mhlo.is_same_data_across_replicas = true}, %arg213: tensor<512xf32> {mhlo.is_same_data_across_replicas = true}, %arg214: tensor<2048xf32> {mhlo.is_same_data_across_replicas = true}, %arg215: tensor<2048xf32> {mhlo.is_same_data_across_replicas = true}, %arg216: tensor<1x1x1024x512xf32> {mhlo.is_same_data_across_replicas = true}, %arg217: tensor<3x3x512x512xf32> {mhlo.is_same_data_across_replicas = true}, %arg218: tensor<1x1x512x2048xf32> {mhlo.is_same_data_across_replicas = true}, %arg219: tensor<1x1x1024x2048xf32> {mhlo.is_same_data_across_replicas = true}, %arg220: tensor<2048xf32> {mhlo.is_same_data_across_replicas = true}, %arg221: tensor<2048xf32> {mhlo.is_same_data_across_replicas = true}, %arg222: tensor<512xf32> {mhlo.is_same_data_across_replicas = true}, %arg223: tensor<512xf32> {mhlo.is_same_data_across_replicas = true}, %arg224: tensor<512xf32> {mhlo.is_same_data_across_replicas = true}, %arg225: tensor<512xf32> {mhlo.is_same_data_across_replicas = true}, %arg226: tensor<2048xf32> {mhlo.is_same_data_across_replicas = true}, %arg227: tensor<2048xf32> {mhlo.is_same_data_across_replicas = true}, %arg228: tensor<1x1x2048x512xf32> {mhlo.is_same_data_across_replicas = true}, %arg229: tensor<3x3x512x512xf32> {mhlo.is_same_data_across_replicas = true}, %arg230: tensor<1x1x512x2048xf32> {mhlo.is_same_data_across_replicas = true}, %arg231: tensor<512xf32> {mhlo.is_same_data_across_replicas = true}, %arg232: tensor<512xf32> {mhlo.is_same_data_across_replicas = true}, %arg233: tensor<512xf32> {mhlo.is_same_data_across_replicas = true}, %arg234: tensor<512xf32> {mhlo.is_same_data_across_replicas = true}, %arg235: tensor<2048xf32> {mhlo.is_same_data_across_replicas = true}, %arg236: tensor<2048xf32> {mhlo.is_same_data_across_replicas = true}, %arg237: tensor<1x1x2048x512xf32> {mhlo.is_same_data_across_replicas = true}, %arg238: tensor<3x3x512x512xf32> {mhlo.is_same_data_across_replicas = true}, %arg239: tensor<1x1x512x2048xf32> {mhlo.is_same_data_across_replicas = true}, %arg240: tensor<64xf32> {mhlo.is_same_data_across_replicas = true}, %arg241: tensor<64xf32> {mhlo.is_same_data_across_replicas = true}, %arg242: tensor<64xf32> {mhlo.is_same_data_across_replicas = true}, %arg243: tensor<64xf32> {mhlo.is_same_data_across_replicas = true}, %arg244: tensor<256xf32> {mhlo.is_same_data_across_replicas = true}, %arg245: tensor<256xf32> {mhlo.is_same_data_across_replicas = true}, %arg246: tensor<1x1x256x64xf32> {mhlo.is_same_data_across_replicas = true}, %arg247: tensor<3x3x64x64xf32> {mhlo.is_same_data_across_replicas = true}, %arg248: tensor<1x1x64x256xf32> {mhlo.is_same_data_across_replicas = true}, %arg249: tensor<128xf32> {mhlo.is_same_data_across_replicas = true}, %arg250: tensor<128xf32> {mhlo.is_same_data_across_replicas = true}, %arg251: tensor<128xf32> {mhlo.is_same_data_across_replicas = true}, %arg252: tensor<128xf32> {mhlo.is_same_data_across_replicas = true}, %arg253: tensor<512xf32> {mhlo.is_same_data_across_replicas = true}, %arg254: tensor<512xf32> {mhlo.is_same_data_across_replicas = true}, %arg255: tensor<1x1x256x128xf32> {mhlo.is_same_data_across_replicas = true}, %arg256: tensor<3x3x128x128xf32> {mhlo.is_same_data_across_replicas = true}, %arg257: tensor<1x1x128x512xf32> {mhlo.is_same_data_across_replicas = true}, %arg258: tensor<1x1x256x512xf32> {mhlo.is_same_data_across_replicas = true}, %arg259: tensor<512xf32> {mhlo.is_same_data_across_replicas = true}, %arg260: tensor<512xf32> {mhlo.is_same_data_across_replicas = true}, %arg261: tensor<128xf32> {mhlo.is_same_data_across_replicas = true}, %arg262: tensor<128xf32> {mhlo.is_same_data_across_replicas = true}, %arg263: tensor<128xf32> {mhlo.is_same_data_across_replicas = true}, %arg264: tensor<128xf32> {mhlo.is_same_data_across_replicas = true}, %arg265: tensor<512xf32> {mhlo.is_same_data_across_replicas = true}, %arg266: tensor<512xf32> {mhlo.is_same_data_across_replicas = true}, %arg267: tensor<1x1x512x128xf32> {mhlo.is_same_data_across_replicas = true}, %arg268: tensor<3x3x128x128xf32> {mhlo.is_same_data_across_replicas = true}, %arg269: tensor<1x1x128x512xf32> {mhlo.is_same_data_across_replicas = true}, %arg270: tensor<128xf32> {mhlo.is_same_data_across_replicas = true}, %arg271: tensor<128xf32> {mhlo.is_same_data_across_replicas = true}, %arg272: tensor<128xf32> {mhlo.is_same_data_across_replicas = true}, %arg273: tensor<128xf32> {mhlo.is_same_data_across_replicas = true}, %arg274: tensor<512xf32> {mhlo.is_same_data_across_replicas = true}, %arg275: tensor<512xf32> {mhlo.is_same_data_across_replicas = true}, %arg276: tensor<1x1x512x128xf32> {mhlo.is_same_data_across_replicas = true}, %arg277: tensor<3x3x128x128xf32> {mhlo.is_same_data_across_replicas = true}, %arg278: tensor<1x1x128x512xf32> {mhlo.is_same_data_across_replicas = true}, %arg279: tensor<128xf32> {mhlo.is_same_data_across_replicas = true}, %arg280: tensor<128xf32> {mhlo.is_same_data_across_replicas = true}, %arg281: tensor<128xf32> {mhlo.is_same_data_across_replicas = true}, %arg282: tensor<128xf32> {mhlo.is_same_data_across_replicas = true}, %arg283: tensor<512xf32> {mhlo.is_same_data_across_replicas = true}, %arg284: tensor<512xf32> {mhlo.is_same_data_across_replicas = true}, %arg285: tensor<1x1x512x128xf32> {mhlo.is_same_data_across_replicas = true}, %arg286: tensor<3x3x128x128xf32> {mhlo.is_same_data_across_replicas = true}, %arg287: tensor<1x1x128x512xf32> {mhlo.is_same_data_across_replicas = true}, %arg288: tensor<256xf32> {mhlo.is_same_data_across_replicas = true}, %arg289: tensor<256xf32> {mhlo.is_same_data_across_replicas = true}, %arg290: tensor<256xf32> {mhlo.is_same_data_across_replicas = true}, %arg291: tensor<256xf32> {mhlo.is_same_data_across_replicas = true}, %arg292: tensor<1024xf32> {mhlo.is_same_data_across_replicas = true}, %arg293: tensor<1024xf32> {mhlo.is_same_data_across_replicas = true}, %arg294: tensor<1x1x512x256xf32> {mhlo.is_same_data_across_replicas = true}, %arg295: tensor<3x3x256x256xf32> {mhlo.is_same_data_across_replicas = true}, %arg296: tensor<1x1x256x1024xf32> {mhlo.is_same_data_across_replicas = true}, %arg297: tensor<1x1x512x1024xf32> {mhlo.is_same_data_across_replicas = true}, %arg298: tensor<1024xf32> {mhlo.is_same_data_across_replicas = true}, %arg299: tensor<1024xf32> {mhlo.is_same_data_across_replicas = true}, %arg300: tensor<256xf32> {mhlo.is_same_data_across_replicas = true}, %arg301: tensor<256xf32> {mhlo.is_same_data_across_replicas = true}, %arg302: tensor<256xf32> {mhlo.is_same_data_across_replicas = true}, %arg303: tensor<256xf32> {mhlo.is_same_data_across_replicas = true}, %arg304: tensor<1024xf32> {mhlo.is_same_data_across_replicas = true}, %arg305: tensor<1024xf32> {mhlo.is_same_data_across_replicas = true}, %arg306: tensor<1x1x1024x256xf32> {mhlo.is_same_data_across_replicas = true}, %arg307: tensor<3x3x256x256xf32> {mhlo.is_same_data_across_replicas = true}, %arg308: tensor<1x1x256x1024xf32> {mhlo.is_same_data_across_replicas = true}, %arg309: tensor<256xf32> {mhlo.is_same_data_across_replicas = true}, %arg310: tensor<256xf32> {mhlo.is_same_data_across_replicas = true}, %arg311: tensor<256xf32> {mhlo.is_same_data_across_replicas = true}, %arg312: tensor<256xf32> {mhlo.is_same_data_across_replicas = true}, %arg313: tensor<1024xf32> {mhlo.is_same_data_across_replicas = true}, %arg314: tensor<1024xf32> {mhlo.is_same_data_across_replicas = true}, %arg315: tensor<1x1x1024x256xf32> {mhlo.is_same_data_across_replicas = true}, %arg316: tensor<3x3x256x256xf32> {mhlo.is_same_data_across_replicas = true}, %arg317: tensor<1x1x256x1024xf32> {mhlo.is_same_data_across_replicas = true}, %arg318: tensor<1000xf32> {mhlo.is_same_data_across_replicas = true}, %arg319: tensor<2048x1000xf32> {mhlo.is_same_data_across_replicas = true}, %arg320: tensor<64xf32> {mhlo.is_same_data_across_replicas = true}, %arg321: tensor<64xf32> {mhlo.is_same_data_across_replicas = true}, %arg322: tensor<7x7x3x64xf32> {mhlo.is_same_data_across_replicas = true}, %arg323: tensor<i32> {mhlo.is_same_data_across_replicas = true}, %arg324: tensor<64xf32> {mhlo.is_same_data_across_replicas = true}, %arg325: tensor<64xf32> {mhlo.is_same_data_across_replicas = true}, %arg326: tensor<64xf32> {mhlo.is_same_data_across_replicas = true}, %arg327: tensor<64xf32> {mhlo.is_same_data_across_replicas = true}, %arg328: tensor<256xf32> {mhlo.is_same_data_across_replicas = true}, %arg329: tensor<256xf32> {mhlo.is_same_data_across_replicas = true}, %arg330: tensor<256xf32> {mhlo.is_same_data_across_replicas = true}, %arg331: tensor<256xf32> {mhlo.is_same_data_across_replicas = true}, %arg332: tensor<64xf32> {mhlo.is_same_data_across_replicas = true}, %arg333: tensor<64xf32> {mhlo.is_same_data_across_replicas = true}, %arg334: tensor<64xf32> {mhlo.is_same_data_across_replicas = true}, %arg335: tensor<64xf32> {mhlo.is_same_data_across_replicas = true}, %arg336: tensor<256xf32> {mhlo.is_same_data_across_replicas = true}, %arg337: tensor<256xf32> {mhlo.is_same_data_across_replicas = true}, %arg338: tensor<256xf32> {mhlo.is_same_data_across_replicas = true}, %arg339: tensor<256xf32> {mhlo.is_same_data_across_replicas = true}, %arg340: tensor<256xf32> {mhlo.is_same_data_across_replicas = true}, %arg341: tensor<256xf32> {mhlo.is_same_data_across_replicas = true}, %arg342: tensor<1024xf32> {mhlo.is_same_data_across_replicas = true}, %arg343: tensor<1024xf32> {mhlo.is_same_data_across_replicas = true}, %arg344: tensor<256xf32> {mhlo.is_same_data_across_replicas = true}, %arg345: tensor<256xf32> {mhlo.is_same_data_across_replicas = true}, %arg346: tensor<256xf32> {mhlo.is_same_data_across_replicas = true}, %arg347: tensor<256xf32> {mhlo.is_same_data_across_replicas = true}, %arg348: tensor<1024xf32> {mhlo.is_same_data_across_replicas = true}, %arg349: tensor<1024xf32> {mhlo.is_same_data_across_replicas = true}, %arg350: tensor<256xf32> {mhlo.is_same_data_across_replicas = true}, %arg351: tensor<256xf32> {mhlo.is_same_data_across_replicas = true}, %arg352: tensor<256xf32> {mhlo.is_same_data_across_replicas = true}, %arg353: tensor<256xf32> {mhlo.is_same_data_across_replicas = true}, %arg354: tensor<1024xf32> {mhlo.is_same_data_across_replicas = true}, %arg355: tensor<1024xf32> {mhlo.is_same_data_across_replicas = true}, %arg356: tensor<512xf32> {mhlo.is_same_data_across_replicas = true}, %arg357: tensor<512xf32> {mhlo.is_same_data_across_replicas = true}, %arg358: tensor<512xf32> {mhlo.is_same_data_across_replicas = true}, %arg359: tensor<512xf32> {mhlo.is_same_data_across_replicas = true}, %arg360: tensor<2048xf32> {mhlo.is_same_data_across_replicas = true}, %arg361: tensor<2048xf32> {mhlo.is_same_data_across_replicas = true}, %arg362: tensor<2048xf32> {mhlo.is_same_data_across_replicas = true}, %arg363: tensor<2048xf32> {mhlo.is_same_data_across_replicas = true}, %arg364: tensor<512xf32> {mhlo.is_same_data_across_replicas = true}, %arg365: tensor<512xf32> {mhlo.is_same_data_across_replicas = true}, %arg366: tensor<512xf32> {mhlo.is_same_data_across_replicas = true}, %arg367: tensor<512xf32> {mhlo.is_same_data_across_replicas = true}, %arg368: tensor<2048xf32> {mhlo.is_same_data_across_replicas = true}, %arg369: tensor<2048xf32> {mhlo.is_same_data_across_replicas = true}, %arg370: tensor<512xf32> {mhlo.is_same_data_across_replicas = true}, %arg371: tensor<512xf32> {mhlo.is_same_data_across_replicas = true}, %arg372: tensor<512xf32> {mhlo.is_same_data_across_replicas = true}, %arg373: tensor<512xf32> {mhlo.is_same_data_across_replicas = true}, %arg374: tensor<2048xf32> {mhlo.is_same_data_across_replicas = true}, %arg375: tensor<2048xf32> {mhlo.is_same_data_across_replicas = true}, %arg376: tensor<64xf32> {mhlo.is_same_data_across_replicas = true}, %arg377: tensor<64xf32> {mhlo.is_same_data_across_replicas = true}, %arg378: tensor<64xf32> {mhlo.is_same_data_across_replicas = true}, %arg379: tensor<64xf32> {mhlo.is_same_data_across_replicas = true}, %arg380: tensor<256xf32> {mhlo.is_same_data_across_replicas = true}, %arg381: tensor<256xf32> {mhlo.is_same_data_across_replicas = true}, %arg382: tensor<128xf32> {mhlo.is_same_data_across_replicas = true}, %arg383: tensor<128xf32> {mhlo.is_same_data_across_replicas = true}, %arg384: tensor<128xf32> {mhlo.is_same_data_across_replicas = true}, %arg385: tensor<128xf32> {mhlo.is_same_data_across_replicas = true}, %arg386: tensor<512xf32> {mhlo.is_same_data_across_replicas = true}, %arg387: tensor<512xf32> {mhlo.is_same_data_across_replicas = true}, %arg388: tensor<512xf32> {mhlo.is_same_data_across_replicas = true}, %arg389: tensor<512xf32> {mhlo.is_same_data_across_replicas = true}, %arg390: tensor<128xf32> {mhlo.is_same_data_across_replicas = true}, %arg391: tensor<128xf32> {mhlo.is_same_data_across_replicas = true}, %arg392: tensor<128xf32> {mhlo.is_same_data_across_replicas = true}, %arg393: tensor<128xf32> {mhlo.is_same_data_across_replicas = true}, %arg394: tensor<512xf32> {mhlo.is_same_data_across_replicas = true}, %arg395: tensor<512xf32> {mhlo.is_same_data_across_replicas = true}, %arg396: tensor<128xf32> {mhlo.is_same_data_across_replicas = true}, %arg397: tensor<128xf32> {mhlo.is_same_data_across_replicas = true}, %arg398: tensor<128xf32> {mhlo.is_same_data_across_replicas = true}, %arg399: tensor<128xf32> {mhlo.is_same_data_across_replicas = true}, %arg400: tensor<512xf32> {mhlo.is_same_data_across_replicas = true}, %arg401: tensor<512xf32> {mhlo.is_same_data_across_replicas = true}, %arg402: tensor<128xf32> {mhlo.is_same_data_across_replicas = true}, %arg403: tensor<128xf32> {mhlo.is_same_data_across_replicas = true}, %arg404: tensor<128xf32> {mhlo.is_same_data_across_replicas = true}, %arg405: tensor<128xf32> {mhlo.is_same_data_across_replicas = true}, %arg406: tensor<512xf32> {mhlo.is_same_data_across_replicas = true}, %arg407: tensor<512xf32> {mhlo.is_same_data_across_replicas = true}, %arg408: tensor<256xf32> {mhlo.is_same_data_across_replicas = true}, %arg409: tensor<256xf32> {mhlo.is_same_data_across_replicas = true}, %arg410: tensor<256xf32> {mhlo.is_same_data_across_replicas = true}, %arg411: tensor<256xf32> {mhlo.is_same_data_across_replicas = true}, %arg412: tensor<1024xf32> {mhlo.is_same_data_across_replicas = true}, %arg413: tensor<1024xf32> {mhlo.is_same_data_across_replicas = true}, %arg414: tensor<1024xf32> {mhlo.is_same_data_across_replicas = true}, %arg415: tensor<1024xf32> {mhlo.is_same_data_across_replicas = true}, %arg416: tensor<256xf32> {mhlo.is_same_data_across_replicas = true}, %arg417: tensor<256xf32> {mhlo.is_same_data_across_replicas = true}, %arg418: tensor<256xf32> {mhlo.is_same_data_across_replicas = true}, %arg419: tensor<256xf32> {mhlo.is_same_data_across_replicas = true}, %arg420: tensor<1024xf32> {mhlo.is_same_data_across_replicas = true}, %arg421: tensor<1024xf32> {mhlo.is_same_data_across_replicas = true}, %arg422: tensor<256xf32> {mhlo.is_same_data_across_replicas = true}, %arg423: tensor<256xf32> {mhlo.is_same_data_across_replicas = true}, %arg424: tensor<256xf32> {mhlo.is_same_data_across_replicas = true}, %arg425: tensor<256xf32> {mhlo.is_same_data_across_replicas = true}, %arg426: tensor<1024xf32> {mhlo.is_same_data_across_replicas = true}, %arg427: tensor<1024xf32> {mhlo.is_same_data_across_replicas = true}, %arg428: tensor<64xf32> {mhlo.is_same_data_across_replicas = true}, %arg429: tensor<64xf32> {mhlo.is_same_data_across_replicas = true}, %arg430: tensor<1x256x224x224x3xf16>, %arg431: tensor<1x256xi32>) -> (tensor<i32> {jax.result_info = "[0].step"}, tensor<64xf32> {jax.result_info = "[0].params['BottleneckResNetBlock_0']['BatchNorm_0']['bias']"}, tensor<64xf32> {jax.result_info = "[0].params['BottleneckResNetBlock_0']['BatchNorm_0']['scale']"}, tensor<64xf32> {jax.result_info = "[0].params['BottleneckResNetBlock_0']['BatchNorm_1']['bias']"}, tensor<64xf32> {jax.result_info = "[0].params['BottleneckResNetBlock_0']['BatchNorm_1']['scale']"}, tensor<256xf32> {jax.result_info = "[0].params['BottleneckResNetBlock_0']['BatchNorm_2']['bias']"}, tensor<256xf32> {jax.result_info = "[0].params['BottleneckResNetBlock_0']['BatchNorm_2']['scale']"}, tensor<1x1x64x64xf32> {jax.result_info = "[0].params['BottleneckResNetBlock_0']['Conv_0']['kernel']"}, tensor<3x3x64x64xf32> {jax.result_info = "[0].params['BottleneckResNetBlock_0']['Conv_1']['kernel']"}, tensor<1x1x64x256xf32> {jax.result_info = "[0].params['BottleneckResNetBlock_0']['Conv_2']['kernel']"}, tensor<1x1x64x256xf32> {jax.result_info = "[0].params['BottleneckResNetBlock_0']['conv_proj']['kernel']"}, tensor<256xf32> {jax.result_info = "[0].params['BottleneckResNetBlock_0']['norm_proj']['bias']"}, tensor<256xf32> {jax.result_info = "[0].params['BottleneckResNetBlock_0']['norm_proj']['scale']"}, tensor<64xf32> {jax.result_info = "[0].params['BottleneckResNetBlock_1']['BatchNorm_0']['bias']"}, tensor<64xf32> {jax.result_info = "[0].params['BottleneckResNetBlock_1']['BatchNorm_0']['scale']"}, tensor<64xf32> {jax.result_info = "[0].params['BottleneckResNetBlock_1']['BatchNorm_1']['bias']"}, tensor<64xf32> {jax.result_info = "[0].params['BottleneckResNetBlock_1']['BatchNorm_1']['scale']"}, tensor<256xf32> {jax.result_info = "[0].params['BottleneckResNetBlock_1']['BatchNorm_2']['bias']"}, tensor<256xf32> {jax.result_info = "[0].params['BottleneckResNetBlock_1']['BatchNorm_2']['scale']"}, tensor<1x1x256x64xf32> {jax.result_info = "[0].params['BottleneckResNetBlock_1']['Conv_0']['kernel']"}, tensor<3x3x64x64xf32> {jax.result_info = "[0].params['BottleneckResNetBlock_1']['Conv_1']['kernel']"}, tensor<1x1x64x256xf32> {jax.result_info = "[0].params['BottleneckResNetBlock_1']['Conv_2']['kernel']"}, tensor<256xf32> {jax.result_info = "[0].params['BottleneckResNetBlock_10']['BatchNorm_0']['bias']"}, tensor<256xf32> {jax.result_info = "[0].params['BottleneckResNetBlock_10']['BatchNorm_0']['scale']"}, tensor<256xf32> {jax.result_info = "[0].params['BottleneckResNetBlock_10']['BatchNorm_1']['bias']"}, tensor<256xf32> {jax.result_info = "[0].params['BottleneckResNetBlock_10']['BatchNorm_1']['scale']"}, tensor<1024xf32> {jax.result_info = "[0].params['BottleneckResNetBlock_10']['BatchNorm_2']['bias']"}, tensor<1024xf32> {jax.result_info = "[0].params['BottleneckResNetBlock_10']['BatchNorm_2']['scale']"}, tensor<1x1x1024x256xf32> {jax.result_info = "[0].params['BottleneckResNetBlock_10']['Conv_0']['kernel']"}, tensor<3x3x256x256xf32> {jax.result_info = "[0].params['BottleneckResNetBlock_10']['Conv_1']['kernel']"}, tensor<1x1x256x1024xf32> {jax.result_info = "[0].params['BottleneckResNetBlock_10']['Conv_2']['kernel']"}, tensor<256xf32> {jax.result_info = "[0].params['BottleneckResNetBlock_11']['BatchNorm_0']['bias']"}, tensor<256xf32> {jax.result_info = "[0].params['BottleneckResNetBlock_11']['BatchNorm_0']['scale']"}, tensor<256xf32> {jax.result_info = "[0].params['BottleneckResNetBlock_11']['BatchNorm_1']['bias']"}, tensor<256xf32> {jax.result_info = "[0].params['BottleneckResNetBlock_11']['BatchNorm_1']['scale']"}, tensor<1024xf32> {jax.result_info = "[0].params['BottleneckResNetBlock_11']['BatchNorm_2']['bias']"}, tensor<1024xf32> {jax.result_info = "[0].params['BottleneckResNetBlock_11']['BatchNorm_2']['scale']"}, tensor<1x1x1024x256xf32> {jax.result_info = "[0].params['BottleneckResNetBlock_11']['Conv_0']['kernel']"}, tensor<3x3x256x256xf32> {jax.result_info = "[0].params['BottleneckResNetBlock_11']['Conv_1']['kernel']"}, tensor<1x1x256x1024xf32> {jax.result_info = "[0].params['BottleneckResNetBlock_11']['Conv_2']['kernel']"}, tensor<256xf32> {jax.result_info = "[0].params['BottleneckResNetBlock_12']['BatchNorm_0']['bias']"}, tensor<256xf32> {jax.result_info = "[0].params['BottleneckResNetBlock_12']['BatchNorm_0']['scale']"}, tensor<256xf32> {jax.result_info = "[0].params['BottleneckResNetBlock_12']['BatchNorm_1']['bias']"}, tensor<256xf32> {jax.result_info = "[0].params['BottleneckResNetBlock_12']['BatchNorm_1']['scale']"}, tensor<1024xf32> {jax.result_info = "[0].params['BottleneckResNetBlock_12']['BatchNorm_2']['bias']"}, tensor<1024xf32> {jax.result_info = "[0].params['BottleneckResNetBlock_12']['BatchNorm_2']['scale']"}, tensor<1x1x1024x256xf32> {jax.result_info = "[0].params['BottleneckResNetBlock_12']['Conv_0']['kernel']"}, tensor<3x3x256x256xf32> {jax.result_info = "[0].params['BottleneckResNetBlock_12']['Conv_1']['kernel']"}, tensor<1x1x256x1024xf32> {jax.result_info = "[0].params['BottleneckResNetBlock_12']['Conv_2']['kernel']"}, tensor<512xf32> {jax.result_info = "[0].params['BottleneckResNetBlock_13']['BatchNorm_0']['bias']"}, tensor<512xf32> {jax.result_info = "[0].params['BottleneckResNetBlock_13']['BatchNorm_0']['scale']"}, tensor<512xf32> {jax.result_info = "[0].params['BottleneckResNetBlock_13']['BatchNorm_1']['bias']"}, tensor<512xf32> {jax.result_info = "[0].params['BottleneckResNetBlock_13']['BatchNorm_1']['scale']"}, tensor<2048xf32> {jax.result_info = "[0].params['BottleneckResNetBlock_13']['BatchNorm_2']['bias']"}, tensor<2048xf32> {jax.result_info = "[0].params['BottleneckResNetBlock_13']['BatchNorm_2']['scale']"}, tensor<1x1x1024x512xf32> {jax.result_info = "[0].params['BottleneckResNetBlock_13']['Conv_0']['kernel']"}, tensor<3x3x512x512xf32> {jax.result_info = "[0].params['BottleneckResNetBlock_13']['Conv_1']['kernel']"}, tensor<1x1x512x2048xf32> {jax.result_info = "[0].params['BottleneckResNetBlock_13']['Conv_2']['kernel']"}, tensor<1x1x1024x2048xf32> {jax.result_info = "[0].params['BottleneckResNetBlock_13']['conv_proj']['kernel']"}, tensor<2048xf32> {jax.result_info = "[0].params['BottleneckResNetBlock_13']['norm_proj']['bias']"}, tensor<2048xf32> {jax.result_info = "[0].params['BottleneckResNetBlock_13']['norm_proj']['scale']"}, tensor<512xf32> {jax.result_info = "[0].params['BottleneckResNetBlock_14']['BatchNorm_0']['bias']"}, tensor<512xf32> {jax.result_info = "[0].params['BottleneckResNetBlock_14']['BatchNorm_0']['scale']"}, tensor<512xf32> {jax.result_info = "[0].params['BottleneckResNetBlock_14']['BatchNorm_1']['bias']"}, tensor<512xf32> {jax.result_info = "[0].params['BottleneckResNetBlock_14']['BatchNorm_1']['scale']"}, tensor<2048xf32> {jax.result_info = "[0].params['BottleneckResNetBlock_14']['BatchNorm_2']['bias']"}, tensor<2048xf32> {jax.result_info = "[0].params['BottleneckResNetBlock_14']['BatchNorm_2']['scale']"}, tensor<1x1x2048x512xf32> {jax.result_info = "[0].params['BottleneckResNetBlock_14']['Conv_0']['kernel']"}, tensor<3x3x512x512xf32> {jax.result_info = "[0].params['BottleneckResNetBlock_14']['Conv_1']['kernel']"}, tensor<1x1x512x2048xf32> {jax.result_info = "[0].params['BottleneckResNetBlock_14']['Conv_2']['kernel']"}, tensor<512xf32> {jax.result_info = "[0].params['BottleneckResNetBlock_15']['BatchNorm_0']['bias']"}, tensor<512xf32> {jax.result_info = "[0].params['BottleneckResNetBlock_15']['BatchNorm_0']['scale']"}, tensor<512xf32> {jax.result_info = "[0].params['BottleneckResNetBlock_15']['BatchNorm_1']['bias']"}, tensor<512xf32> {jax.result_info = "[0].params['BottleneckResNetBlock_15']['BatchNorm_1']['scale']"}, tensor<2048xf32> {jax.result_info = "[0].params['BottleneckResNetBlock_15']['BatchNorm_2']['bias']"}, tensor<2048xf32> {jax.result_info = "[0].params['BottleneckResNetBlock_15']['BatchNorm_2']['scale']"}, tensor<1x1x2048x512xf32> {jax.result_info = "[0].params['BottleneckResNetBlock_15']['Conv_0']['kernel']"}, tensor<3x3x512x512xf32> {jax.result_info = "[0].params['BottleneckResNetBlock_15']['Conv_1']['kernel']"}, tensor<1x1x512x2048xf32> {jax.result_info = "[0].params['BottleneckResNetBlock_15']['Conv_2']['kernel']"}, tensor<64xf32> {jax.result_info = "[0].params['BottleneckResNetBlock_2']['BatchNorm_0']['bias']"}, tensor<64xf32> {jax.result_info = "[0].params['BottleneckResNetBlock_2']['BatchNorm_0']['scale']"}, tensor<64xf32> {jax.result_info = "[0].params['BottleneckResNetBlock_2']['BatchNorm_1']['bias']"}, tensor<64xf32> {jax.result_info = "[0].params['BottleneckResNetBlock_2']['BatchNorm_1']['scale']"}, tensor<256xf32> {jax.result_info = "[0].params['BottleneckResNetBlock_2']['BatchNorm_2']['bias']"}, tensor<256xf32> {jax.result_info = "[0].params['BottleneckResNetBlock_2']['BatchNorm_2']['scale']"}, tensor<1x1x256x64xf32> {jax.result_info = "[0].params['BottleneckResNetBlock_2']['Conv_0']['kernel']"}, tensor<3x3x64x64xf32> {jax.result_info = "[0].params['BottleneckResNetBlock_2']['Conv_1']['kernel']"}, tensor<1x1x64x256xf32> {jax.result_info = "[0].params['BottleneckResNetBlock_2']['Conv_2']['kernel']"}, tensor<128xf32> {jax.result_info = "[0].params['BottleneckResNetBlock_3']['BatchNorm_0']['bias']"}, tensor<128xf32> {jax.result_info = "[0].params['BottleneckResNetBlock_3']['BatchNorm_0']['scale']"}, tensor<128xf32> {jax.result_info = "[0].params['BottleneckResNetBlock_3']['BatchNorm_1']['bias']"}, tensor<128xf32> {jax.result_info = "[0].params['BottleneckResNetBlock_3']['BatchNorm_1']['scale']"}, tensor<512xf32> {jax.result_info = "[0].params['BottleneckResNetBlock_3']['BatchNorm_2']['bias']"}, tensor<512xf32> {jax.result_info = "[0].params['BottleneckResNetBlock_3']['BatchNorm_2']['scale']"}, tensor<1x1x256x128xf32> {jax.result_info = "[0].params['BottleneckResNetBlock_3']['Conv_0']['kernel']"}, tensor<3x3x128x128xf32> {jax.result_info = "[0].params['BottleneckResNetBlock_3']['Conv_1']['kernel']"}, tensor<1x1x128x512xf32> {jax.result_info = "[0].params['BottleneckResNetBlock_3']['Conv_2']['kernel']"}, tensor<1x1x256x512xf32> {jax.result_info = "[0].params['BottleneckResNetBlock_3']['conv_proj']['kernel']"}, tensor<512xf32> {jax.result_info = "[0].params['BottleneckResNetBlock_3']['norm_proj']['bias']"}, tensor<512xf32> {jax.result_info = "[0].params['BottleneckResNetBlock_3']['norm_proj']['scale']"}, tensor<128xf32> {jax.result_info = "[0].params['BottleneckResNetBlock_4']['BatchNorm_0']['bias']"}, tensor<128xf32> {jax.result_info = "[0].params['BottleneckResNetBlock_4']['BatchNorm_0']['scale']"}, tensor<128xf32> {jax.result_info = "[0].params['BottleneckResNetBlock_4']['BatchNorm_1']['bias']"}, tensor<128xf32> {jax.result_info = "[0].params['BottleneckResNetBlock_4']['BatchNorm_1']['scale']"}, tensor<512xf32> {jax.result_info = "[0].params['BottleneckResNetBlock_4']['BatchNorm_2']['bias']"}, tensor<512xf32> {jax.result_info = "[0].params['BottleneckResNetBlock_4']['BatchNorm_2']['scale']"}, tensor<1x1x512x128xf32> {jax.result_info = "[0].params['BottleneckResNetBlock_4']['Conv_0']['kernel']"}, tensor<3x3x128x128xf32> {jax.result_info = "[0].params['BottleneckResNetBlock_4']['Conv_1']['kernel']"}, tensor<1x1x128x512xf32> {jax.result_info = "[0].params['BottleneckResNetBlock_4']['Conv_2']['kernel']"}, tensor<128xf32> {jax.result_info = "[0].params['BottleneckResNetBlock_5']['BatchNorm_0']['bias']"}, tensor<128xf32> {jax.result_info = "[0].params['BottleneckResNetBlock_5']['BatchNorm_0']['scale']"}, tensor<128xf32> {jax.result_info = "[0].params['BottleneckResNetBlock_5']['BatchNorm_1']['bias']"}, tensor<128xf32> {jax.result_info = "[0].params['BottleneckResNetBlock_5']['BatchNorm_1']['scale']"}, tensor<512xf32> {jax.result_info = "[0].params['BottleneckResNetBlock_5']['BatchNorm_2']['bias']"}, tensor<512xf32> {jax.result_info = "[0].params['BottleneckResNetBlock_5']['BatchNorm_2']['scale']"}, tensor<1x1x512x128xf32> {jax.result_info = "[0].params['BottleneckResNetBlock_5']['Conv_0']['kernel']"}, tensor<3x3x128x128xf32> {jax.result_info = "[0].params['BottleneckResNetBlock_5']['Conv_1']['kernel']"}, tensor<1x1x128x512xf32> {jax.result_info = "[0].params['BottleneckResNetBlock_5']['Conv_2']['kernel']"}, tensor<128xf32> {jax.result_info = "[0].params['BottleneckResNetBlock_6']['BatchNorm_0']['bias']"}, tensor<128xf32> {jax.result_info = "[0].params['BottleneckResNetBlock_6']['BatchNorm_0']['scale']"}, tensor<128xf32> {jax.result_info = "[0].params['BottleneckResNetBlock_6']['BatchNorm_1']['bias']"}, tensor<128xf32> {jax.result_info = "[0].params['BottleneckResNetBlock_6']['BatchNorm_1']['scale']"}, tensor<512xf32> {jax.result_info = "[0].params['BottleneckResNetBlock_6']['BatchNorm_2']['bias']"}, tensor<512xf32> {jax.result_info = "[0].params['BottleneckResNetBlock_6']['BatchNorm_2']['scale']"}, tensor<1x1x512x128xf32> {jax.result_info = "[0].params['BottleneckResNetBlock_6']['Conv_0']['kernel']"}, tensor<3x3x128x128xf32> {jax.result_info = "[0].params['BottleneckResNetBlock_6']['Conv_1']['kernel']"}, tensor<1x1x128x512xf32> {jax.result_info = "[0].params['BottleneckResNetBlock_6']['Conv_2']['kernel']"}, tensor<256xf32> {jax.result_info = "[0].params['BottleneckResNetBlock_7']['BatchNorm_0']['bias']"}, tensor<256xf32> {jax.result_info = "[0].params['BottleneckResNetBlock_7']['BatchNorm_0']['scale']"}, tensor<256xf32> {jax.result_info = "[0].params['BottleneckResNetBlock_7']['BatchNorm_1']['bias']"}, tensor<256xf32> {jax.result_info = "[0].params['BottleneckResNetBlock_7']['BatchNorm_1']['scale']"}, tensor<1024xf32> {jax.result_info = "[0].params['BottleneckResNetBlock_7']['BatchNorm_2']['bias']"}, tensor<1024xf32> {jax.result_info = "[0].params['BottleneckResNetBlock_7']['BatchNorm_2']['scale']"}, tensor<1x1x512x256xf32> {jax.result_info = "[0].params['BottleneckResNetBlock_7']['Conv_0']['kernel']"}, tensor<3x3x256x256xf32> {jax.result_info = "[0].params['BottleneckResNetBlock_7']['Conv_1']['kernel']"}, tensor<1x1x256x1024xf32> {jax.result_info = "[0].params['BottleneckResNetBlock_7']['Conv_2']['kernel']"}, tensor<1x1x512x1024xf32> {jax.result_info = "[0].params['BottleneckResNetBlock_7']['conv_proj']['kernel']"}, tensor<1024xf32> {jax.result_info = "[0].params['BottleneckResNetBlock_7']['norm_proj']['bias']"}, tensor<1024xf32> {jax.result_info = "[0].params['BottleneckResNetBlock_7']['norm_proj']['scale']"}, tensor<256xf32> {jax.result_info = "[0].params['BottleneckResNetBlock_8']['BatchNorm_0']['bias']"}, tensor<256xf32> {jax.result_info = "[0].params['BottleneckResNetBlock_8']['BatchNorm_0']['scale']"}, tensor<256xf32> {jax.result_info = "[0].params['BottleneckResNetBlock_8']['BatchNorm_1']['bias']"}, tensor<256xf32> {jax.result_info = "[0].params['BottleneckResNetBlock_8']['BatchNorm_1']['scale']"}, tensor<1024xf32> {jax.result_info = "[0].params['BottleneckResNetBlock_8']['BatchNorm_2']['bias']"}, tensor<1024xf32> {jax.result_info = "[0].params['BottleneckResNetBlock_8']['BatchNorm_2']['scale']"}, tensor<1x1x1024x256xf32> {jax.result_info = "[0].params['BottleneckResNetBlock_8']['Conv_0']['kernel']"}, tensor<3x3x256x256xf32> {jax.result_info = "[0].params['BottleneckResNetBlock_8']['Conv_1']['kernel']"}, tensor<1x1x256x1024xf32> {jax.result_info = "[0].params['BottleneckResNetBlock_8']['Conv_2']['kernel']"}, tensor<256xf32> {jax.result_info = "[0].params['BottleneckResNetBlock_9']['BatchNorm_0']['bias']"}, tensor<256xf32> {jax.result_info = "[0].params['BottleneckResNetBlock_9']['BatchNorm_0']['scale']"}, tensor<256xf32> {jax.result_info = "[0].params['BottleneckResNetBlock_9']['BatchNorm_1']['bias']"}, tensor<256xf32> {jax.result_info = "[0].params['BottleneckResNetBlock_9']['BatchNorm_1']['scale']"}, tensor<1024xf32> {jax.result_info = "[0].params['BottleneckResNetBlock_9']['BatchNorm_2']['bias']"}, tensor<1024xf32> {jax.result_info = "[0].params['BottleneckResNetBlock_9']['BatchNorm_2']['scale']"}, tensor<1x1x1024x256xf32> {jax.result_info = "[0].params['BottleneckResNetBlock_9']['Conv_0']['kernel']"}, tensor<3x3x256x256xf32> {jax.result_info = "[0].params['BottleneckResNetBlock_9']['Conv_1']['kernel']"}, tensor<1x1x256x1024xf32> {jax.result_info = "[0].params['BottleneckResNetBlock_9']['Conv_2']['kernel']"}, tensor<1000xf32> {jax.result_info = "[0].params['Dense_0']['bias']"}, tensor<2048x1000xf32> {jax.result_info = "[0].params['Dense_0']['kernel']"}, tensor<64xf32> {jax.result_info = "[0].params['bn_init']['bias']"}, tensor<64xf32> {jax.result_info = "[0].params['bn_init']['scale']"}, tensor<7x7x3x64xf32> {jax.result_info = "[0].params['conv_init']['kernel']"}, tensor<64xf32> {jax.result_info = "[0].opt_state[0].trace['BottleneckResNetBlock_0']['BatchNorm_0']['bias']"}, tensor<64xf32> {jax.result_info = "[0].opt_state[0].trace['BottleneckResNetBlock_0']['BatchNorm_0']['scale']"}, tensor<64xf32> {jax.result_info = "[0].opt_state[0].trace['BottleneckResNetBlock_0']['BatchNorm_1']['bias']"}, tensor<64xf32> {jax.result_info = "[0].opt_state[0].trace['BottleneckResNetBlock_0']['BatchNorm_1']['scale']"}, tensor<256xf32> {jax.result_info = "[0].opt_state[0].trace['BottleneckResNetBlock_0']['BatchNorm_2']['bias']"}, tensor<256xf32> {jax.result_info = "[0].opt_state[0].trace['BottleneckResNetBlock_0']['BatchNorm_2']['scale']"}, tensor<1x1x64x64xf32> {jax.result_info = "[0].opt_state[0].trace['BottleneckResNetBlock_0']['Conv_0']['kernel']"}, tensor<3x3x64x64xf32> {jax.result_info = "[0].opt_state[0].trace['BottleneckResNetBlock_0']['Conv_1']['kernel']"}, tensor<1x1x64x256xf32> {jax.result_info = "[0].opt_state[0].trace['BottleneckResNetBlock_0']['Conv_2']['kernel']"}, tensor<1x1x64x256xf32> {jax.result_info = "[0].opt_state[0].trace['BottleneckResNetBlock_0']['conv_proj']['kernel']"}, tensor<256xf32> {jax.result_info = "[0].opt_state[0].trace['BottleneckResNetBlock_0']['norm_proj']['bias']"}, tensor<256xf32> {jax.result_info = "[0].opt_state[0].trace['BottleneckResNetBlock_0']['norm_proj']['scale']"}, tensor<64xf32> {jax.result_info = "[0].opt_state[0].trace['BottleneckResNetBlock_1']['BatchNorm_0']['bias']"}, tensor<64xf32> {jax.result_info = "[0].opt_state[0].trace['BottleneckResNetBlock_1']['BatchNorm_0']['scale']"}, tensor<64xf32> {jax.result_info = "[0].opt_state[0].trace['BottleneckResNetBlock_1']['BatchNorm_1']['bias']"}, tensor<64xf32> {jax.result_info = "[0].opt_state[0].trace['BottleneckResNetBlock_1']['BatchNorm_1']['scale']"}, tensor<256xf32> {jax.result_info = "[0].opt_state[0].trace['BottleneckResNetBlock_1']['BatchNorm_2']['bias']"}, tensor<256xf32> {jax.result_info = "[0].opt_state[0].trace['BottleneckResNetBlock_1']['BatchNorm_2']['scale']"}, tensor<1x1x256x64xf32> {jax.result_info = "[0].opt_state[0].trace['BottleneckResNetBlock_1']['Conv_0']['kernel']"}, tensor<3x3x64x64xf32> {jax.result_info = "[0].opt_state[0].trace['BottleneckResNetBlock_1']['Conv_1']['kernel']"}, tensor<1x1x64x256xf32> {jax.result_info = "[0].opt_state[0].trace['BottleneckResNetBlock_1']['Conv_2']['kernel']"}, tensor<256xf32> {jax.result_info = "[0].opt_state[0].trace['BottleneckResNetBlock_10']['BatchNorm_0']['bias']"}, tensor<256xf32> {jax.result_info = "[0].opt_state[0].trace['BottleneckResNetBlock_10']['BatchNorm_0']['scale']"}, tensor<256xf32> {jax.result_info = "[0].opt_state[0].trace['BottleneckResNetBlock_10']['BatchNorm_1']['bias']"}, tensor<256xf32> {jax.result_info = "[0].opt_state[0].trace['BottleneckResNetBlock_10']['BatchNorm_1']['scale']"}, tensor<1024xf32> {jax.result_info = "[0].opt_state[0].trace['BottleneckResNetBlock_10']['BatchNorm_2']['bias']"}, tensor<1024xf32> {jax.result_info = "[0].opt_state[0].trace['BottleneckResNetBlock_10']['BatchNorm_2']['scale']"}, tensor<1x1x1024x256xf32> {jax.result_info = "[0].opt_state[0].trace['BottleneckResNetBlock_10']['Conv_0']['kernel']"}, tensor<3x3x256x256xf32> {jax.result_info = "[0].opt_state[0].trace['BottleneckResNetBlock_10']['Conv_1']['kernel']"}, tensor<1x1x256x1024xf32> {jax.result_info = "[0].opt_state[0].trace['BottleneckResNetBlock_10']['Conv_2']['kernel']"}, tensor<256xf32> {jax.result_info = "[0].opt_state[0].trace['BottleneckResNetBlock_11']['BatchNorm_0']['bias']"}, tensor<256xf32> {jax.result_info = "[0].opt_state[0].trace['BottleneckResNetBlock_11']['BatchNorm_0']['scale']"}, tensor<256xf32> {jax.result_info = "[0].opt_state[0].trace['BottleneckResNetBlock_11']['BatchNorm_1']['bias']"}, tensor<256xf32> {jax.result_info = "[0].opt_state[0].trace['BottleneckResNetBlock_11']['BatchNorm_1']['scale']"}, tensor<1024xf32> {jax.result_info = "[0].opt_state[0].trace['BottleneckResNetBlock_11']['BatchNorm_2']['bias']"}, tensor<1024xf32> {jax.result_info = "[0].opt_state[0].trace['BottleneckResNetBlock_11']['BatchNorm_2']['scale']"}, tensor<1x1x1024x256xf32> {jax.result_info = "[0].opt_state[0].trace['BottleneckResNetBlock_11']['Conv_0']['kernel']"}, tensor<3x3x256x256xf32> {jax.result_info = "[0].opt_state[0].trace['BottleneckResNetBlock_11']['Conv_1']['kernel']"}, tensor<1x1x256x1024xf32> {jax.result_info = "[0].opt_state[0].trace['BottleneckResNetBlock_11']['Conv_2']['kernel']"}, tensor<256xf32> {jax.result_info = "[0].opt_state[0].trace['BottleneckResNetBlock_12']['BatchNorm_0']['bias']"}, tensor<256xf32> {jax.result_info = "[0].opt_state[0].trace['BottleneckResNetBlock_12']['BatchNorm_0']['scale']"}, tensor<256xf32> {jax.result_info = "[0].opt_state[0].trace['BottleneckResNetBlock_12']['BatchNorm_1']['bias']"}, tensor<256xf32> {jax.result_info = "[0].opt_state[0].trace['BottleneckResNetBlock_12']['BatchNorm_1']['scale']"}, tensor<1024xf32> {jax.result_info = "[0].opt_state[0].trace['BottleneckResNetBlock_12']['BatchNorm_2']['bias']"}, tensor<1024xf32> {jax.result_info = "[0].opt_state[0].trace['BottleneckResNetBlock_12']['BatchNorm_2']['scale']"}, tensor<1x1x1024x256xf32> {jax.result_info = "[0].opt_state[0].trace['BottleneckResNetBlock_12']['Conv_0']['kernel']"}, tensor<3x3x256x256xf32> {jax.result_info = "[0].opt_state[0].trace['BottleneckResNetBlock_12']['Conv_1']['kernel']"}, tensor<1x1x256x1024xf32> {jax.result_info = "[0].opt_state[0].trace['BottleneckResNetBlock_12']['Conv_2']['kernel']"}, tensor<512xf32> {jax.result_info = "[0].opt_state[0].trace['BottleneckResNetBlock_13']['BatchNorm_0']['bias']"}, tensor<512xf32> {jax.result_info = "[0].opt_state[0].trace['BottleneckResNetBlock_13']['BatchNorm_0']['scale']"}, tensor<512xf32> {jax.result_info = "[0].opt_state[0].trace['BottleneckResNetBlock_13']['BatchNorm_1']['bias']"}, tensor<512xf32> {jax.result_info = "[0].opt_state[0].trace['BottleneckResNetBlock_13']['BatchNorm_1']['scale']"}, tensor<2048xf32> {jax.result_info = "[0].opt_state[0].trace['BottleneckResNetBlock_13']['BatchNorm_2']['bias']"}, tensor<2048xf32> {jax.result_info = "[0].opt_state[0].trace['BottleneckResNetBlock_13']['BatchNorm_2']['scale']"}, tensor<1x1x1024x512xf32> {jax.result_info = "[0].opt_state[0].trace['BottleneckResNetBlock_13']['Conv_0']['kernel']"}, tensor<3x3x512x512xf32> {jax.result_info = "[0].opt_state[0].trace['BottleneckResNetBlock_13']['Conv_1']['kernel']"}, tensor<1x1x512x2048xf32> {jax.result_info = "[0].opt_state[0].trace['BottleneckResNetBlock_13']['Conv_2']['kernel']"}, tensor<1x1x1024x2048xf32> {jax.result_info = "[0].opt_state[0].trace['BottleneckResNetBlock_13']['conv_proj']['kernel']"}, tensor<2048xf32> {jax.result_info = "[0].opt_state[0].trace['BottleneckResNetBlock_13']['norm_proj']['bias']"}, tensor<2048xf32> {jax.result_info = "[0].opt_state[0].trace['BottleneckResNetBlock_13']['norm_proj']['scale']"}, tensor<512xf32> {jax.result_info = "[0].opt_state[0].trace['BottleneckResNetBlock_14']['BatchNorm_0']['bias']"}, tensor<512xf32> {jax.result_info = "[0].opt_state[0].trace['BottleneckResNetBlock_14']['BatchNorm_0']['scale']"}, tensor<512xf32> {jax.result_info = "[0].opt_state[0].trace['BottleneckResNetBlock_14']['BatchNorm_1']['bias']"}, tensor<512xf32> {jax.result_info = "[0].opt_state[0].trace['BottleneckResNetBlock_14']['BatchNorm_1']['scale']"}, tensor<2048xf32> {jax.result_info = "[0].opt_state[0].trace['BottleneckResNetBlock_14']['BatchNorm_2']['bias']"}, tensor<2048xf32> {jax.result_info = "[0].opt_state[0].trace['BottleneckResNetBlock_14']['BatchNorm_2']['scale']"}, tensor<1x1x2048x512xf32> {jax.result_info = "[0].opt_state[0].trace['BottleneckResNetBlock_14']['Conv_0']['kernel']"}, tensor<3x3x512x512xf32> {jax.result_info = "[0].opt_state[0].trace['BottleneckResNetBlock_14']['Conv_1']['kernel']"}, tensor<1x1x512x2048xf32> {jax.result_info = "[0].opt_state[0].trace['BottleneckResNetBlock_14']['Conv_2']['kernel']"}, tensor<512xf32> {jax.result_info = "[0].opt_state[0].trace['BottleneckResNetBlock_15']['BatchNorm_0']['bias']"}, tensor<512xf32> {jax.result_info = "[0].opt_state[0].trace['BottleneckResNetBlock_15']['BatchNorm_0']['scale']"}, tensor<512xf32> {jax.result_info = "[0].opt_state[0].trace['BottleneckResNetBlock_15']['BatchNorm_1']['bias']"}, tensor<512xf32> {jax.result_info = "[0].opt_state[0].trace['BottleneckResNetBlock_15']['BatchNorm_1']['scale']"}, tensor<2048xf32> {jax.result_info = "[0].opt_state[0].trace['BottleneckResNetBlock_15']['BatchNorm_2']['bias']"}, tensor<2048xf32> {jax.result_info = "[0].opt_state[0].trace['BottleneckResNetBlock_15']['BatchNorm_2']['scale']"}, tensor<1x1x2048x512xf32> {jax.result_info = "[0].opt_state[0].trace['BottleneckResNetBlock_15']['Conv_0']['kernel']"}, tensor<3x3x512x512xf32> {jax.result_info = "[0].opt_state[0].trace['BottleneckResNetBlock_15']['Conv_1']['kernel']"}, tensor<1x1x512x2048xf32> {jax.result_info = "[0].opt_state[0].trace['BottleneckResNetBlock_15']['Conv_2']['kernel']"}, tensor<64xf32> {jax.result_info = "[0].opt_state[0].trace['BottleneckResNetBlock_2']['BatchNorm_0']['bias']"}, tensor<64xf32> {jax.result_info = "[0].opt_state[0].trace['BottleneckResNetBlock_2']['BatchNorm_0']['scale']"}, tensor<64xf32> {jax.result_info = "[0].opt_state[0].trace['BottleneckResNetBlock_2']['BatchNorm_1']['bias']"}, tensor<64xf32> {jax.result_info = "[0].opt_state[0].trace['BottleneckResNetBlock_2']['BatchNorm_1']['scale']"}, tensor<256xf32> {jax.result_info = "[0].opt_state[0].trace['BottleneckResNetBlock_2']['BatchNorm_2']['bias']"}, tensor<256xf32> {jax.result_info = "[0].opt_state[0].trace['BottleneckResNetBlock_2']['BatchNorm_2']['scale']"}, tensor<1x1x256x64xf32> {jax.result_info = "[0].opt_state[0].trace['BottleneckResNetBlock_2']['Conv_0']['kernel']"}, tensor<3x3x64x64xf32> {jax.result_info = "[0].opt_state[0].trace['BottleneckResNetBlock_2']['Conv_1']['kernel']"}, tensor<1x1x64x256xf32> {jax.result_info = "[0].opt_state[0].trace['BottleneckResNetBlock_2']['Conv_2']['kernel']"}, tensor<128xf32> {jax.result_info = "[0].opt_state[0].trace['BottleneckResNetBlock_3']['BatchNorm_0']['bias']"}, tensor<128xf32> {jax.result_info = "[0].opt_state[0].trace['BottleneckResNetBlock_3']['BatchNorm_0']['scale']"}, tensor<128xf32> {jax.result_info = "[0].opt_state[0].trace['BottleneckResNetBlock_3']['BatchNorm_1']['bias']"}, tensor<128xf32> {jax.result_info = "[0].opt_state[0].trace['BottleneckResNetBlock_3']['BatchNorm_1']['scale']"}, tensor<512xf32> {jax.result_info = "[0].opt_state[0].trace['BottleneckResNetBlock_3']['BatchNorm_2']['bias']"}, tensor<512xf32> {jax.result_info = "[0].opt_state[0].trace['BottleneckResNetBlock_3']['BatchNorm_2']['scale']"}, tensor<1x1x256x128xf32> {jax.result_info = "[0].opt_state[0].trace['BottleneckResNetBlock_3']['Conv_0']['kernel']"}, tensor<3x3x128x128xf32> {jax.result_info = "[0].opt_state[0].trace['BottleneckResNetBlock_3']['Conv_1']['kernel']"}, tensor<1x1x128x512xf32> {jax.result_info = "[0].opt_state[0].trace['BottleneckResNetBlock_3']['Conv_2']['kernel']"}, tensor<1x1x256x512xf32> {jax.result_info = "[0].opt_state[0].trace['BottleneckResNetBlock_3']['conv_proj']['kernel']"}, tensor<512xf32> {jax.result_info = "[0].opt_state[0].trace['BottleneckResNetBlock_3']['norm_proj']['bias']"}, tensor<512xf32> {jax.result_info = "[0].opt_state[0].trace['BottleneckResNetBlock_3']['norm_proj']['scale']"}, tensor<128xf32> {jax.result_info = "[0].opt_state[0].trace['BottleneckResNetBlock_4']['BatchNorm_0']['bias']"}, tensor<128xf32> {jax.result_info = "[0].opt_state[0].trace['BottleneckResNetBlock_4']['BatchNorm_0']['scale']"}, tensor<128xf32> {jax.result_info = "[0].opt_state[0].trace['BottleneckResNetBlock_4']['BatchNorm_1']['bias']"}, tensor<128xf32> {jax.result_info = "[0].opt_state[0].trace['BottleneckResNetBlock_4']['BatchNorm_1']['scale']"}, tensor<512xf32> {jax.result_info = "[0].opt_state[0].trace['BottleneckResNetBlock_4']['BatchNorm_2']['bias']"}, tensor<512xf32> {jax.result_info = "[0].opt_state[0].trace['BottleneckResNetBlock_4']['BatchNorm_2']['scale']"}, tensor<1x1x512x128xf32> {jax.result_info = "[0].opt_state[0].trace['BottleneckResNetBlock_4']['Conv_0']['kernel']"}, tensor<3x3x128x128xf32> {jax.result_info = "[0].opt_state[0].trace['BottleneckResNetBlock_4']['Conv_1']['kernel']"}, tensor<1x1x128x512xf32> {jax.result_info = "[0].opt_state[0].trace['BottleneckResNetBlock_4']['Conv_2']['kernel']"}, tensor<128xf32> {jax.result_info = "[0].opt_state[0].trace['BottleneckResNetBlock_5']['BatchNorm_0']['bias']"}, tensor<128xf32> {jax.result_info = "[0].opt_state[0].trace['BottleneckResNetBlock_5']['BatchNorm_0']['scale']"}, tensor<128xf32> {jax.result_info = "[0].opt_state[0].trace['BottleneckResNetBlock_5']['BatchNorm_1']['bias']"}, tensor<128xf32> {jax.result_info = "[0].opt_state[0].trace['BottleneckResNetBlock_5']['BatchNorm_1']['scale']"}, tensor<512xf32> {jax.result_info = "[0].opt_state[0].trace['BottleneckResNetBlock_5']['BatchNorm_2']['bias']"}, tensor<512xf32> {jax.result_info = "[0].opt_state[0].trace['BottleneckResNetBlock_5']['BatchNorm_2']['scale']"}, tensor<1x1x512x128xf32> {jax.result_info = "[0].opt_state[0].trace['BottleneckResNetBlock_5']['Conv_0']['kernel']"}, tensor<3x3x128x128xf32> {jax.result_info = "[0].opt_state[0].trace['BottleneckResNetBlock_5']['Conv_1']['kernel']"}, tensor<1x1x128x512xf32> {jax.result_info = "[0].opt_state[0].trace['BottleneckResNetBlock_5']['Conv_2']['kernel']"}, tensor<128xf32> {jax.result_info = "[0].opt_state[0].trace['BottleneckResNetBlock_6']['BatchNorm_0']['bias']"}, tensor<128xf32> {jax.result_info = "[0].opt_state[0].trace['BottleneckResNetBlock_6']['BatchNorm_0']['scale']"}, tensor<128xf32> {jax.result_info = "[0].opt_state[0].trace['BottleneckResNetBlock_6']['BatchNorm_1']['bias']"}, tensor<128xf32> {jax.result_info = "[0].opt_state[0].trace['BottleneckResNetBlock_6']['BatchNorm_1']['scale']"}, tensor<512xf32> {jax.result_info = "[0].opt_state[0].trace['BottleneckResNetBlock_6']['BatchNorm_2']['bias']"}, tensor<512xf32> {jax.result_info = "[0].opt_state[0].trace['BottleneckResNetBlock_6']['BatchNorm_2']['scale']"}, tensor<1x1x512x128xf32> {jax.result_info = "[0].opt_state[0].trace['BottleneckResNetBlock_6']['Conv_0']['kernel']"}, tensor<3x3x128x128xf32> {jax.result_info = "[0].opt_state[0].trace['BottleneckResNetBlock_6']['Conv_1']['kernel']"}, tensor<1x1x128x512xf32> {jax.result_info = "[0].opt_state[0].trace['BottleneckResNetBlock_6']['Conv_2']['kernel']"}, tensor<256xf32> {jax.result_info = "[0].opt_state[0].trace['BottleneckResNetBlock_7']['BatchNorm_0']['bias']"}, tensor<256xf32> {jax.result_info = "[0].opt_state[0].trace['BottleneckResNetBlock_7']['BatchNorm_0']['scale']"}, tensor<256xf32> {jax.result_info = "[0].opt_state[0].trace['BottleneckResNetBlock_7']['BatchNorm_1']['bias']"}, tensor<256xf32> {jax.result_info = "[0].opt_state[0].trace['BottleneckResNetBlock_7']['BatchNorm_1']['scale']"}, tensor<1024xf32> {jax.result_info = "[0].opt_state[0].trace['BottleneckResNetBlock_7']['BatchNorm_2']['bias']"}, tensor<1024xf32> {jax.result_info = "[0].opt_state[0].trace['BottleneckResNetBlock_7']['BatchNorm_2']['scale']"}, tensor<1x1x512x256xf32> {jax.result_info = "[0].opt_state[0].trace['BottleneckResNetBlock_7']['Conv_0']['kernel']"}, tensor<3x3x256x256xf32> {jax.result_info = "[0].opt_state[0].trace['BottleneckResNetBlock_7']['Conv_1']['kernel']"}, tensor<1x1x256x1024xf32> {jax.result_info = "[0].opt_state[0].trace['BottleneckResNetBlock_7']['Conv_2']['kernel']"}, tensor<1x1x512x1024xf32> {jax.result_info = "[0].opt_state[0].trace['BottleneckResNetBlock_7']['conv_proj']['kernel']"}, tensor<1024xf32> {jax.result_info = "[0].opt_state[0].trace['BottleneckResNetBlock_7']['norm_proj']['bias']"}, tensor<1024xf32> {jax.result_info = "[0].opt_state[0].trace['BottleneckResNetBlock_7']['norm_proj']['scale']"}, tensor<256xf32> {jax.result_info = "[0].opt_state[0].trace['BottleneckResNetBlock_8']['BatchNorm_0']['bias']"}, tensor<256xf32> {jax.result_info = "[0].opt_state[0].trace['BottleneckResNetBlock_8']['BatchNorm_0']['scale']"}, tensor<256xf32> {jax.result_info = "[0].opt_state[0].trace['BottleneckResNetBlock_8']['BatchNorm_1']['bias']"}, tensor<256xf32> {jax.result_info = "[0].opt_state[0].trace['BottleneckResNetBlock_8']['BatchNorm_1']['scale']"}, tensor<1024xf32> {jax.result_info = "[0].opt_state[0].trace['BottleneckResNetBlock_8']['BatchNorm_2']['bias']"}, tensor<1024xf32> {jax.result_info = "[0].opt_state[0].trace['BottleneckResNetBlock_8']['BatchNorm_2']['scale']"}, tensor<1x1x1024x256xf32> {jax.result_info = "[0].opt_state[0].trace['BottleneckResNetBlock_8']['Conv_0']['kernel']"}, tensor<3x3x256x256xf32> {jax.result_info = "[0].opt_state[0].trace['BottleneckResNetBlock_8']['Conv_1']['kernel']"}, tensor<1x1x256x1024xf32> {jax.result_info = "[0].opt_state[0].trace['BottleneckResNetBlock_8']['Conv_2']['kernel']"}, tensor<256xf32> {jax.result_info = "[0].opt_state[0].trace['BottleneckResNetBlock_9']['BatchNorm_0']['bias']"}, tensor<256xf32> {jax.result_info = "[0].opt_state[0].trace['BottleneckResNetBlock_9']['BatchNorm_0']['scale']"}, tensor<256xf32> {jax.result_info = "[0].opt_state[0].trace['BottleneckResNetBlock_9']['BatchNorm_1']['bias']"}, tensor<256xf32> {jax.result_info = "[0].opt_state[0].trace['BottleneckResNetBlock_9']['BatchNorm_1']['scale']"}, tensor<1024xf32> {jax.result_info = "[0].opt_state[0].trace['BottleneckResNetBlock_9']['BatchNorm_2']['bias']"}, tensor<1024xf32> {jax.result_info = "[0].opt_state[0].trace['BottleneckResNetBlock_9']['BatchNorm_2']['scale']"}, tensor<1x1x1024x256xf32> {jax.result_info = "[0].opt_state[0].trace['BottleneckResNetBlock_9']['Conv_0']['kernel']"}, tensor<3x3x256x256xf32> {jax.result_info = "[0].opt_state[0].trace['BottleneckResNetBlock_9']['Conv_1']['kernel']"}, tensor<1x1x256x1024xf32> {jax.result_info = "[0].opt_state[0].trace['BottleneckResNetBlock_9']['Conv_2']['kernel']"}, tensor<1000xf32> {jax.result_info = "[0].opt_state[0].trace['Dense_0']['bias']"}, tensor<2048x1000xf32> {jax.result_info = "[0].opt_state[0].trace['Dense_0']['kernel']"}, tensor<64xf32> {jax.result_info = "[0].opt_state[0].trace['bn_init']['bias']"}, tensor<64xf32> {jax.result_info = "[0].opt_state[0].trace['bn_init']['scale']"}, tensor<7x7x3x64xf32> {jax.result_info = "[0].opt_state[0].trace['conv_init']['kernel']"}, tensor<i32> {jax.result_info = "[0].opt_state[1].count"}, tensor<64xf32> {jax.result_info = "[0].batch_stats['BottleneckResNetBlock_0']['BatchNorm_0']['mean']"}, tensor<64xf32> {jax.result_info = "[0].batch_stats['BottleneckResNetBlock_0']['BatchNorm_0']['var']"}, tensor<64xf32> {jax.result_info = "[0].batch_stats['BottleneckResNetBlock_0']['BatchNorm_1']['mean']"}, tensor<64xf32> {jax.result_info = "[0].batch_stats['BottleneckResNetBlock_0']['BatchNorm_1']['var']"}, tensor<256xf32> {jax.result_info = "[0].batch_stats['BottleneckResNetBlock_0']['BatchNorm_2']['mean']"}, tensor<256xf32> {jax.result_info = "[0].batch_stats['BottleneckResNetBlock_0']['BatchNorm_2']['var']"}, tensor<256xf32> {jax.result_info = "[0].batch_stats['BottleneckResNetBlock_0']['norm_proj']['mean']"}, tensor<256xf32> {jax.result_info = "[0].batch_stats['BottleneckResNetBlock_0']['norm_proj']['var']"}, tensor<64xf32> {jax.result_info = "[0].batch_stats['BottleneckResNetBlock_1']['BatchNorm_0']['mean']"}, tensor<64xf32> {jax.result_info = "[0].batch_stats['BottleneckResNetBlock_1']['BatchNorm_0']['var']"}, tensor<64xf32> {jax.result_info = "[0].batch_stats['BottleneckResNetBlock_1']['BatchNorm_1']['mean']"}, tensor<64xf32> {jax.result_info = "[0].batch_stats['BottleneckResNetBlock_1']['BatchNorm_1']['var']"}, tensor<256xf32> {jax.result_info = "[0].batch_stats['BottleneckResNetBlock_1']['BatchNorm_2']['mean']"}, tensor<256xf32> {jax.result_info = "[0].batch_stats['BottleneckResNetBlock_1']['BatchNorm_2']['var']"}, tensor<256xf32> {jax.result_info = "[0].batch_stats['BottleneckResNetBlock_10']['BatchNorm_0']['mean']"}, tensor<256xf32> {jax.result_info = "[0].batch_stats['BottleneckResNetBlock_10']['BatchNorm_0']['var']"}, tensor<256xf32> {jax.result_info = "[0].batch_stats['BottleneckResNetBlock_10']['BatchNorm_1']['mean']"}, tensor<256xf32> {jax.result_info = "[0].batch_stats['BottleneckResNetBlock_10']['BatchNorm_1']['var']"}, tensor<1024xf32> {jax.result_info = "[0].batch_stats['BottleneckResNetBlock_10']['BatchNorm_2']['mean']"}, tensor<1024xf32> {jax.result_info = "[0].batch_stats['BottleneckResNetBlock_10']['BatchNorm_2']['var']"}, tensor<256xf32> {jax.result_info = "[0].batch_stats['BottleneckResNetBlock_11']['BatchNorm_0']['mean']"}, tensor<256xf32> {jax.result_info = "[0].batch_stats['BottleneckResNetBlock_11']['BatchNorm_0']['var']"}, tensor<256xf32> {jax.result_info = "[0].batch_stats['BottleneckResNetBlock_11']['BatchNorm_1']['mean']"}, tensor<256xf32> {jax.result_info = "[0].batch_stats['BottleneckResNetBlock_11']['BatchNorm_1']['var']"}, tensor<1024xf32> {jax.result_info = "[0].batch_stats['BottleneckResNetBlock_11']['BatchNorm_2']['mean']"}, tensor<1024xf32> {jax.result_info = "[0].batch_stats['BottleneckResNetBlock_11']['BatchNorm_2']['var']"}, tensor<256xf32> {jax.result_info = "[0].batch_stats['BottleneckResNetBlock_12']['BatchNorm_0']['mean']"}, tensor<256xf32> {jax.result_info = "[0].batch_stats['BottleneckResNetBlock_12']['BatchNorm_0']['var']"}, tensor<256xf32> {jax.result_info = "[0].batch_stats['BottleneckResNetBlock_12']['BatchNorm_1']['mean']"}, tensor<256xf32> {jax.result_info = "[0].batch_stats['BottleneckResNetBlock_12']['BatchNorm_1']['var']"}, tensor<1024xf32> {jax.result_info = "[0].batch_stats['BottleneckResNetBlock_12']['BatchNorm_2']['mean']"}, tensor<1024xf32> {jax.result_info = "[0].batch_stats['BottleneckResNetBlock_12']['BatchNorm_2']['var']"}, tensor<512xf32> {jax.result_info = "[0].batch_stats['BottleneckResNetBlock_13']['BatchNorm_0']['mean']"}, tensor<512xf32> {jax.result_info = "[0].batch_stats['BottleneckResNetBlock_13']['BatchNorm_0']['var']"}, tensor<512xf32> {jax.result_info = "[0].batch_stats['BottleneckResNetBlock_13']['BatchNorm_1']['mean']"}, tensor<512xf32> {jax.result_info = "[0].batch_stats['BottleneckResNetBlock_13']['BatchNorm_1']['var']"}, tensor<2048xf32> {jax.result_info = "[0].batch_stats['BottleneckResNetBlock_13']['BatchNorm_2']['mean']"}, tensor<2048xf32> {jax.result_info = "[0].batch_stats['BottleneckResNetBlock_13']['BatchNorm_2']['var']"}, tensor<2048xf32> {jax.result_info = "[0].batch_stats['BottleneckResNetBlock_13']['norm_proj']['mean']"}, tensor<2048xf32> {jax.result_info = "[0].batch_stats['BottleneckResNetBlock_13']['norm_proj']['var']"}, tensor<512xf32> {jax.result_info = "[0].batch_stats['BottleneckResNetBlock_14']['BatchNorm_0']['mean']"}, tensor<512xf32> {jax.result_info = "[0].batch_stats['BottleneckResNetBlock_14']['BatchNorm_0']['var']"}, tensor<512xf32> {jax.result_info = "[0].batch_stats['BottleneckResNetBlock_14']['BatchNorm_1']['mean']"}, tensor<512xf32> {jax.result_info = "[0].batch_stats['BottleneckResNetBlock_14']['BatchNorm_1']['var']"}, tensor<2048xf32> {jax.result_info = "[0].batch_stats['BottleneckResNetBlock_14']['BatchNorm_2']['mean']"}, tensor<2048xf32> {jax.result_info = "[0].batch_stats['BottleneckResNetBlock_14']['BatchNorm_2']['var']"}, tensor<512xf32> {jax.result_info = "[0].batch_stats['BottleneckResNetBlock_15']['BatchNorm_0']['mean']"}, tensor<512xf32> {jax.result_info = "[0].batch_stats['BottleneckResNetBlock_15']['BatchNorm_0']['var']"}, tensor<512xf32> {jax.result_info = "[0].batch_stats['BottleneckResNetBlock_15']['BatchNorm_1']['mean']"}, tensor<512xf32> {jax.result_info = "[0].batch_stats['BottleneckResNetBlock_15']['BatchNorm_1']['var']"}, tensor<2048xf32> {jax.result_info = "[0].batch_stats['BottleneckResNetBlock_15']['BatchNorm_2']['mean']"}, tensor<2048xf32> {jax.result_info = "[0].batch_stats['BottleneckResNetBlock_15']['BatchNorm_2']['var']"}, tensor<64xf32> {jax.result_info = "[0].batch_stats['BottleneckResNetBlock_2']['BatchNorm_0']['mean']"}, tensor<64xf32> {jax.result_info = "[0].batch_stats['BottleneckResNetBlock_2']['BatchNorm_0']['var']"}, tensor<64xf32> {jax.result_info = "[0].batch_stats['BottleneckResNetBlock_2']['BatchNorm_1']['mean']"}, tensor<64xf32> {jax.result_info = "[0].batch_stats['BottleneckResNetBlock_2']['BatchNorm_1']['var']"}, tensor<256xf32> {jax.result_info = "[0].batch_stats['BottleneckResNetBlock_2']['BatchNorm_2']['mean']"}, tensor<256xf32> {jax.result_info = "[0].batch_stats['BottleneckResNetBlock_2']['BatchNorm_2']['var']"}, tensor<128xf32> {jax.result_info = "[0].batch_stats['BottleneckResNetBlock_3']['BatchNorm_0']['mean']"}, tensor<128xf32> {jax.result_info = "[0].batch_stats['BottleneckResNetBlock_3']['BatchNorm_0']['var']"}, tensor<128xf32> {jax.result_info = "[0].batch_stats['BottleneckResNetBlock_3']['BatchNorm_1']['mean']"}, tensor<128xf32> {jax.result_info = "[0].batch_stats['BottleneckResNetBlock_3']['BatchNorm_1']['var']"}, tensor<512xf32> {jax.result_info = "[0].batch_stats['BottleneckResNetBlock_3']['BatchNorm_2']['mean']"}, tensor<512xf32> {jax.result_info = "[0].batch_stats['BottleneckResNetBlock_3']['BatchNorm_2']['var']"}, tensor<512xf32> {jax.result_info = "[0].batch_stats['BottleneckResNetBlock_3']['norm_proj']['mean']"}, tensor<512xf32> {jax.result_info = "[0].batch_stats['BottleneckResNetBlock_3']['norm_proj']['var']"}, tensor<128xf32> {jax.result_info = "[0].batch_stats['BottleneckResNetBlock_4']['BatchNorm_0']['mean']"}, tensor<128xf32> {jax.result_info = "[0].batch_stats['BottleneckResNetBlock_4']['BatchNorm_0']['var']"}, tensor<128xf32> {jax.result_info = "[0].batch_stats['BottleneckResNetBlock_4']['BatchNorm_1']['mean']"}, tensor<128xf32> {jax.result_info = "[0].batch_stats['BottleneckResNetBlock_4']['BatchNorm_1']['var']"}, tensor<512xf32> {jax.result_info = "[0].batch_stats['BottleneckResNetBlock_4']['BatchNorm_2']['mean']"}, tensor<512xf32> {jax.result_info = "[0].batch_stats['BottleneckResNetBlock_4']['BatchNorm_2']['var']"}, tensor<128xf32> {jax.result_info = "[0].batch_stats['BottleneckResNetBlock_5']['BatchNorm_0']['mean']"}, tensor<128xf32> {jax.result_info = "[0].batch_stats['BottleneckResNetBlock_5']['BatchNorm_0']['var']"}, tensor<128xf32> {jax.result_info = "[0].batch_stats['BottleneckResNetBlock_5']['BatchNorm_1']['mean']"}, tensor<128xf32> {jax.result_info = "[0].batch_stats['BottleneckResNetBlock_5']['BatchNorm_1']['var']"}, tensor<512xf32> {jax.result_info = "[0].batch_stats['BottleneckResNetBlock_5']['BatchNorm_2']['mean']"}, tensor<512xf32> {jax.result_info = "[0].batch_stats['BottleneckResNetBlock_5']['BatchNorm_2']['var']"}, tensor<128xf32> {jax.result_info = "[0].batch_stats['BottleneckResNetBlock_6']['BatchNorm_0']['mean']"}, tensor<128xf32> {jax.result_info = "[0].batch_stats['BottleneckResNetBlock_6']['BatchNorm_0']['var']"}, tensor<128xf32> {jax.result_info = "[0].batch_stats['BottleneckResNetBlock_6']['BatchNorm_1']['mean']"}, tensor<128xf32> {jax.result_info = "[0].batch_stats['BottleneckResNetBlock_6']['BatchNorm_1']['var']"}, tensor<512xf32> {jax.result_info = "[0].batch_stats['BottleneckResNetBlock_6']['BatchNorm_2']['mean']"}, tensor<512xf32> {jax.result_info = "[0].batch_stats['BottleneckResNetBlock_6']['BatchNorm_2']['var']"}, tensor<256xf32> {jax.result_info = "[0].batch_stats['BottleneckResNetBlock_7']['BatchNorm_0']['mean']"}, tensor<256xf32> {jax.result_info = "[0].batch_stats['BottleneckResNetBlock_7']['BatchNorm_0']['var']"}, tensor<256xf32> {jax.result_info = "[0].batch_stats['BottleneckResNetBlock_7']['BatchNorm_1']['mean']"}, tensor<256xf32> {jax.result_info = "[0].batch_stats['BottleneckResNetBlock_7']['BatchNorm_1']['var']"}, tensor<1024xf32> {jax.result_info = "[0].batch_stats['BottleneckResNetBlock_7']['BatchNorm_2']['mean']"}, tensor<1024xf32> {jax.result_info = "[0].batch_stats['BottleneckResNetBlock_7']['BatchNorm_2']['var']"}, tensor<1024xf32> {jax.result_info = "[0].batch_stats['BottleneckResNetBlock_7']['norm_proj']['mean']"}, tensor<1024xf32> {jax.result_info = "[0].batch_stats['BottleneckResNetBlock_7']['norm_proj']['var']"}, tensor<256xf32> {jax.result_info = "[0].batch_stats['BottleneckResNetBlock_8']['BatchNorm_0']['mean']"}, tensor<256xf32> {jax.result_info = "[0].batch_stats['BottleneckResNetBlock_8']['BatchNorm_0']['var']"}, tensor<256xf32> {jax.result_info = "[0].batch_stats['BottleneckResNetBlock_8']['BatchNorm_1']['mean']"}, tensor<256xf32> {jax.result_info = "[0].batch_stats['BottleneckResNetBlock_8']['BatchNorm_1']['var']"}, tensor<1024xf32> {jax.result_info = "[0].batch_stats['BottleneckResNetBlock_8']['BatchNorm_2']['mean']"}, tensor<1024xf32> {jax.result_info = "[0].batch_stats['BottleneckResNetBlock_8']['BatchNorm_2']['var']"}, tensor<256xf32> {jax.result_info = "[0].batch_stats['BottleneckResNetBlock_9']['BatchNorm_0']['mean']"}, tensor<256xf32> {jax.result_info = "[0].batch_stats['BottleneckResNetBlock_9']['BatchNorm_0']['var']"}, tensor<256xf32> {jax.result_info = "[0].batch_stats['BottleneckResNetBlock_9']['BatchNorm_1']['mean']"}, tensor<256xf32> {jax.result_info = "[0].batch_stats['BottleneckResNetBlock_9']['BatchNorm_1']['var']"}, tensor<1024xf32> {jax.result_info = "[0].batch_stats['BottleneckResNetBlock_9']['BatchNorm_2']['mean']"}, tensor<1024xf32> {jax.result_info = "[0].batch_stats['BottleneckResNetBlock_9']['BatchNorm_2']['var']"}, tensor<64xf32> {jax.result_info = "[0].batch_stats['bn_init']['mean']"}, tensor<64xf32> {jax.result_info = "[0].batch_stats['bn_init']['var']"}, tensor<1xf32> {jax.result_info = "[1]['accuracy']"}, tensor<1xf32> {jax.result_info = "[1]['learning_rate']"}, tensor<1xf32> {jax.result_info = "[1]['loss']"}) {
    %0 = stablehlo.reshape %arg430 : (tensor<1x256x224x224x3xf16>) -> tensor<256x224x224x3xf16>
    %1 = stablehlo.reshape %arg431 : (tensor<1x256xi32>) -> tensor<256xi32>
    %c = stablehlo.constant dense<0> : tensor<i32>
    %2 = stablehlo.subtract %arg0, %c : tensor<i32>
    %cst = stablehlo.constant dense<5.000000e+02> : tensor<f32>
    %3 = call @clip(%2, %c, %cst) : (tensor<i32>, tensor<i32>, tensor<f32>) -> tensor<f32>
    %4 = stablehlo.divide %3, %cst : tensor<f32>
    %cst_0 = stablehlo.constant dense<1.000000e+00> : tensor<f32>
    %5 = stablehlo.subtract %cst_0, %4 : tensor<f32>
    %cst_1 = stablehlo.constant dense<-4.000000e-01> : tensor<f32>
    %6 = stablehlo.multiply %cst_1, %5 : tensor<f32>
    %cst_2 = stablehlo.constant dense<4.000000e-01> : tensor<f32>
    %7 = stablehlo.add %6, %cst_2 : tensor<f32>
    %8 = stablehlo.convert %arg0 : (tensor<i32>) -> tensor<f32>
    %9 = stablehlo.compare  LT, %8, %cst,  FLOAT : (tensor<f32>, tensor<f32>) -> tensor<i1>
    %10 = stablehlo.convert %arg0 : (tensor<i32>) -> tensor<f32>
    %11 = stablehlo.subtract %10, %cst : tensor<f32>
    %cst_3 = stablehlo.constant dense<1.000000e+02> : tensor<f32>
    %12 = stablehlo.minimum %11, %cst_3 : tensor<f32>
    %cst_4 = stablehlo.constant dense<3.14159274> : tensor<f32>
    %13 = stablehlo.multiply %cst_4, %12 : tensor<f32>
    %14 = stablehlo.divide %13, %cst_3 : tensor<f32>
    %15 = stablehlo.cosine %14 : tensor<f32>
    %16 = stablehlo.add %cst_0, %15 : tensor<f32>
    %cst_5 = stablehlo.constant dense<5.000000e-01> : tensor<f32>
    %17 = stablehlo.multiply %cst_5, %16 : tensor<f32>
    %18 = stablehlo.power %17, %cst_0 : tensor<f32>
    %19 = stablehlo.multiply %cst_0, %18 : tensor<f32>
    %cst_6 = stablehlo.constant dense<0.000000e+00> : tensor<f32>
    %20 = stablehlo.add %19, %cst_6 : tensor<f32>
    %21 = stablehlo.multiply %cst_2, %20 : tensor<f32>
    %22 = call @_where(%9, %7, %21) : (tensor<i1>, tensor<f32>, tensor<f32>) -> tensor<f32>
    %23 = stablehlo.convert %arg161 : (tensor<7x7x3x64xf32>) -> tensor<7x7x3x64xf16>
    %24 = stablehlo.convolution(%0, %23) dim_numbers = [b, 0, 1, f]x[0, 1, i, o]->[b, 0, 1, f], window = {stride = [2, 2], pad = [[3, 3], [3, 3]], lhs_dilate = [1, 1], rhs_dilate = [1, 1], reverse = [false, false]} {batch_group_count = 1 : i64, feature_group_count = 1 : i64, precision_config = [#stablehlo<precision DEFAULT>, #stablehlo<precision DEFAULT>]} : (tensor<256x224x224x3xf16>, tensor<7x7x3x64xf16>) -> tensor<256x112x112x64xf16>
    %25 = stablehlo.convert %24 : (tensor<256x112x112x64xf16>) -> tensor<256x112x112x64xf32>
    %26 = stablehlo.multiply %25, %25 : tensor<256x112x112x64xf32>
    %cst_7 = stablehlo.constant dense<2.000000e+00> : tensor<f32>
    %27 = stablehlo.broadcast_in_dim %cst_7, dims = [] : (tensor<f32>) -> tensor<256x112x112x64xf32>
    %28 = stablehlo.multiply %27, %25 : tensor<256x112x112x64xf32>
    %cst_8 = stablehlo.constant dense<0.000000e+00> : tensor<f32>
    %29 = stablehlo.reduce(%25 init: %cst_8) applies stablehlo.add across dimensions = [0, 1, 2] : (tensor<256x112x112x64xf32>, tensor<f32>) -> tensor<64xf32>
    %cst_9 = stablehlo.constant dense<0x4A440000> : tensor<f32>
    %30 = stablehlo.broadcast_in_dim %cst_9, dims = [] : (tensor<f32>) -> tensor<64xf32>
    %31 = stablehlo.divide %29, %30 : tensor<64xf32>
    %cst_10 = stablehlo.constant dense<0.000000e+00> : tensor<f32>
    %32 = stablehlo.reduce(%26 init: %cst_10) applies stablehlo.add across dimensions = [0, 1, 2] : (tensor<256x112x112x64xf32>, tensor<f32>) -> tensor<64xf32>
    %33 = stablehlo.broadcast_in_dim %cst_9, dims = [] : (tensor<f32>) -> tensor<64xf32>
    %34 = stablehlo.divide %32, %33 : tensor<64xf32>
    %35 = stablehlo.broadcast_in_dim %31, dims = [1] : (tensor<64xf32>) -> tensor<1x64xf32>
    %36 = stablehlo.broadcast_in_dim %34, dims = [1] : (tensor<64xf32>) -> tensor<1x64xf32>
    %37 = stablehlo.concatenate %35, %36, dim = 0 : (tensor<1x64xf32>, tensor<1x64xf32>) -> tensor<2x64xf32>
    %38 = "stablehlo.all_reduce"(%37) <{replica_groups = dense<[[0, 1, 2, 3]]> : tensor<1x4xi64>}> ({
    ^bb0(%arg432: tensor<f32>, %arg433: tensor<f32>):
      %9450 = stablehlo.add %arg432, %arg433 : tensor<f32>
      stablehlo.return %9450 : tensor<f32>
    }) : (tensor<2x64xf32>) -> tensor<2x64xf32>
    %cst_11 = stablehlo.constant dense<4.000000e+00> : tensor<f32>
    %39 = stablehlo.broadcast_in_dim %cst_11, dims = [] : (tensor<f32>) -> tensor<2x64xf32>
    %40 = stablehlo.divide %38, %39 : tensor<2x64xf32>
    %41 = stablehlo.slice %40 [0:1, 0:64] : (tensor<2x64xf32>) -> tensor<1x64xf32>
    %42 = stablehlo.reshape %41 : (tensor<1x64xf32>) -> tensor<64xf32>
    %43 = stablehlo.slice %40 [1:2, 0:64] : (tensor<2x64xf32>) -> tensor<1x64xf32>
    %44 = stablehlo.reshape %43 : (tensor<1x64xf32>) -> tensor<64xf32>
    %45 = stablehlo.multiply %42, %42 : tensor<64xf32>
    %46 = stablehlo.broadcast_in_dim %cst_7, dims = [] : (tensor<f32>) -> tensor<64xf32>
    %47 = stablehlo.multiply %46, %42 : tensor<64xf32>
    %48 = stablehlo.subtract %44, %45 : tensor<64xf32>
    %cst_12 = stablehlo.constant dense<0.000000e+00> : tensor<f32>
    %49 = stablehlo.broadcast_in_dim %cst_12, dims = [] : (tensor<f32>) -> tensor<64xf32>
    %50 = stablehlo.maximum %49, %48 : tensor<64xf32>
    %51 = stablehlo.compare  EQ, %48, %50,  FLOAT : (tensor<64xf32>, tensor<64xf32>) -> tensor<64xi1>
    %cst_13 = stablehlo.constant dense<1.000000e+00> : tensor<f32>
    %52 = stablehlo.broadcast_in_dim %cst_13, dims = [] : (tensor<f32>) -> tensor<64xf32>
    %53 = stablehlo.broadcast_in_dim %cst_12, dims = [] : (tensor<f32>) -> tensor<64xf32>
    %54 = stablehlo.select %51, %52, %53 : tensor<64xi1>, tensor<64xf32>
    %55 = stablehlo.broadcast_in_dim %cst_12, dims = [] : (tensor<f32>) -> tensor<64xf32>
    %56 = stablehlo.compare  EQ, %55, %50,  FLOAT : (tensor<64xf32>, tensor<64xf32>) -> tensor<64xi1>
    %57 = stablehlo.broadcast_in_dim %cst_7, dims = [] : (tensor<f32>) -> tensor<64xf32>
    %58 = stablehlo.broadcast_in_dim %cst_13, dims = [] : (tensor<f32>) -> tensor<64xf32>
    %59 = stablehlo.select %56, %57, %58 : tensor<64xi1>, tensor<64xf32>
    %60 = stablehlo.divide %54, %59 : tensor<64xf32>
    %cst_14 = stablehlo.constant dense<0.899999976> : tensor<f32>
    %61 = stablehlo.broadcast_in_dim %cst_14, dims = [] : (tensor<f32>) -> tensor<64xf32>
    %62 = stablehlo.multiply %61, %arg428 : tensor<64xf32>
    %cst_15 = stablehlo.constant dense<1.000000e-01> : tensor<f32>
    %63 = stablehlo.broadcast_in_dim %cst_15, dims = [] : (tensor<f32>) -> tensor<64xf32>
    %64 = stablehlo.multiply %63, %42 : tensor<64xf32>
    %65 = stablehlo.add %62, %64 : tensor<64xf32>
    %66 = stablehlo.broadcast_in_dim %cst_14, dims = [] : (tensor<f32>) -> tensor<64xf32>
    %67 = stablehlo.multiply %66, %arg429 : tensor<64xf32>
    %68 = stablehlo.broadcast_in_dim %cst_15, dims = [] : (tensor<f32>) -> tensor<64xf32>
    %69 = stablehlo.multiply %68, %50 : tensor<64xf32>
    %70 = stablehlo.add %67, %69 : tensor<64xf32>
    %71 = stablehlo.broadcast_in_dim %42, dims = [3] : (tensor<64xf32>) -> tensor<1x1x1x64xf32>
    %72 = stablehlo.broadcast_in_dim %50, dims = [3] : (tensor<64xf32>) -> tensor<1x1x1x64xf32>
    %73 = stablehlo.convert %24 : (tensor<256x112x112x64xf16>) -> tensor<256x112x112x64xf32>
    %74 = stablehlo.broadcast_in_dim %71, dims = [0, 1, 2, 3] : (tensor<1x1x1x64xf32>) -> tensor<256x112x112x64xf32>
    %75 = stablehlo.subtract %73, %74 : tensor<256x112x112x64xf32>
    %cst_16 = stablehlo.constant dense<9.99999974E-6> : tensor<f32>
    %76 = stablehlo.broadcast_in_dim %cst_16, dims = [] : (tensor<f32>) -> tensor<1x1x1x64xf32>
    %77 = stablehlo.add %72, %76 : tensor<1x1x1x64xf32>
    %78 = stablehlo.rsqrt %77 : tensor<1x1x1x64xf32>
    %79 = stablehlo.divide %78, %77 : tensor<1x1x1x64xf32>
    %cst_17 = stablehlo.constant dense<-5.000000e-01> : tensor<f32>
    %80 = stablehlo.broadcast_in_dim %cst_17, dims = [] : (tensor<f32>) -> tensor<1x1x1x64xf32>
    %81 = stablehlo.multiply %80, %79 : tensor<1x1x1x64xf32>
    %82 = stablehlo.reshape %arg160 : (tensor<64xf32>) -> tensor<1x1x1x64xf32>
    %83 = stablehlo.multiply %78, %82 : tensor<1x1x1x64xf32>
    %84 = stablehlo.broadcast_in_dim %83, dims = [0, 1, 2, 3] : (tensor<1x1x1x64xf32>) -> tensor<256x112x112x64xf32>
    %85 = stablehlo.multiply %75, %84 : tensor<256x112x112x64xf32>
    %86 = stablehlo.reshape %arg159 : (tensor<64xf32>) -> tensor<1x1x1x64xf32>
    %87 = stablehlo.broadcast_in_dim %86, dims = [0, 1, 2, 3] : (tensor<1x1x1x64xf32>) -> tensor<256x112x112x64xf32>
    %88 = stablehlo.add %85, %87 : tensor<256x112x112x64xf32>
    %89 = stablehlo.convert %88 : (tensor<256x112x112x64xf32>) -> tensor<256x112x112x64xf16>
    %90 = call @relu(%89) : (tensor<256x112x112x64xf16>) -> tensor<256x112x112x64xf16>
    %cst_18 = stablehlo.constant dense<0.000000e+00> : tensor<f16>
    %91 = stablehlo.broadcast_in_dim %cst_18, dims = [] : (tensor<f16>) -> tensor<256x112x112x64xf16>
    %92 = stablehlo.compare  GT, %89, %91,  FLOAT : (tensor<256x112x112x64xf16>, tensor<256x112x112x64xf16>) -> tensor<256x112x112x64xi1>
    %93 = stablehlo.broadcast_in_dim %cst_18, dims = [] : (tensor<f16>) -> tensor<256x112x112x64xf16>
    %cst_19 = stablehlo.constant dense<0xFC00> : tensor<f16>
    %94 = stablehlo.broadcast_in_dim %cst_19, dims = [] : (tensor<f16>) -> tensor<f16>
    %95 = "stablehlo.reduce_window"(%90, %94) <{base_dilations = array<i64: 1, 1, 1, 1>, padding = dense<[[0, 0], [0, 1], [0, 1], [0, 0]]> : tensor<4x2xi64>, window_dilations = array<i64: 1, 1, 1, 1>, window_dimensions = array<i64: 1, 3, 3, 1>, window_strides = array<i64: 1, 2, 2, 1>}> ({
    ^bb0(%arg432: tensor<f16>, %arg433: tensor<f16>):
      %9450 = stablehlo.maximum %arg432, %arg433 : tensor<f16>
      stablehlo.return %9450 : tensor<f16>
    }) : (tensor<256x112x112x64xf16>, tensor<f16>) -> tensor<256x56x56x64xf16>
    %96 = stablehlo.convert %arg7 : (tensor<1x1x64x64xf32>) -> tensor<1x1x64x64xf16>
    %97 = stablehlo.convolution(%95, %96) dim_numbers = [b, 0, 1, f]x[0, 1, i, o]->[b, 0, 1, f], window = {stride = [1, 1], pad = [[0, 0], [0, 0]], lhs_dilate = [1, 1], rhs_dilate = [1, 1], reverse = [false, false]} {batch_group_count = 1 : i64, feature_group_count = 1 : i64, precision_config = [#stablehlo<precision DEFAULT>, #stablehlo<precision DEFAULT>]} : (tensor<256x56x56x64xf16>, tensor<1x1x64x64xf16>) -> tensor<256x56x56x64xf16>
    %98 = stablehlo.convert %97 : (tensor<256x56x56x64xf16>) -> tensor<256x56x56x64xf32>
    %99 = stablehlo.multiply %98, %98 : tensor<256x56x56x64xf32>
    %100 = stablehlo.broadcast_in_dim %cst_7, dims = [] : (tensor<f32>) -> tensor<256x56x56x64xf32>
    %101 = stablehlo.multiply %100, %98 : tensor<256x56x56x64xf32>
    %cst_20 = stablehlo.constant dense<0.000000e+00> : tensor<f32>
    %102 = stablehlo.reduce(%98 init: %cst_20) applies stablehlo.add across dimensions = [0, 1, 2] : (tensor<256x56x56x64xf32>, tensor<f32>) -> tensor<64xf32>
    %cst_21 = stablehlo.constant dense<8.028160e+05> : tensor<f32>
    %103 = stablehlo.broadcast_in_dim %cst_21, dims = [] : (tensor<f32>) -> tensor<64xf32>
    %104 = stablehlo.divide %102, %103 : tensor<64xf32>
    %cst_22 = stablehlo.constant dense<0.000000e+00> : tensor<f32>
    %105 = stablehlo.reduce(%99 init: %cst_22) applies stablehlo.add across dimensions = [0, 1, 2] : (tensor<256x56x56x64xf32>, tensor<f32>) -> tensor<64xf32>
    %106 = stablehlo.broadcast_in_dim %cst_21, dims = [] : (tensor<f32>) -> tensor<64xf32>
    %107 = stablehlo.divide %105, %106 : tensor<64xf32>
    %108 = stablehlo.broadcast_in_dim %104, dims = [1] : (tensor<64xf32>) -> tensor<1x64xf32>
    %109 = stablehlo.broadcast_in_dim %107, dims = [1] : (tensor<64xf32>) -> tensor<1x64xf32>
    %110 = stablehlo.concatenate %108, %109, dim = 0 : (tensor<1x64xf32>, tensor<1x64xf32>) -> tensor<2x64xf32>
    %111 = "stablehlo.all_reduce"(%110) <{replica_groups = dense<[[0, 1, 2, 3]]> : tensor<1x4xi64>}> ({
    ^bb0(%arg432: tensor<f32>, %arg433: tensor<f32>):
      %9450 = stablehlo.add %arg432, %arg433 : tensor<f32>
      stablehlo.return %9450 : tensor<f32>
    }) : (tensor<2x64xf32>) -> tensor<2x64xf32>
    %112 = stablehlo.broadcast_in_dim %cst_11, dims = [] : (tensor<f32>) -> tensor<2x64xf32>
    %113 = stablehlo.divide %111, %112 : tensor<2x64xf32>
    %114 = stablehlo.slice %113 [0:1, 0:64] : (tensor<2x64xf32>) -> tensor<1x64xf32>
    %115 = stablehlo.reshape %114 : (tensor<1x64xf32>) -> tensor<64xf32>
    %116 = stablehlo.slice %113 [1:2, 0:64] : (tensor<2x64xf32>) -> tensor<1x64xf32>
    %117 = stablehlo.reshape %116 : (tensor<1x64xf32>) -> tensor<64xf32>
    %118 = stablehlo.multiply %115, %115 : tensor<64xf32>
    %119 = stablehlo.broadcast_in_dim %cst_7, dims = [] : (tensor<f32>) -> tensor<64xf32>
    %120 = stablehlo.multiply %119, %115 : tensor<64xf32>
    %121 = stablehlo.subtract %117, %118 : tensor<64xf32>
    %122 = stablehlo.broadcast_in_dim %cst_12, dims = [] : (tensor<f32>) -> tensor<64xf32>
    %123 = stablehlo.maximum %122, %121 : tensor<64xf32>
    %124 = stablehlo.compare  EQ, %121, %123,  FLOAT : (tensor<64xf32>, tensor<64xf32>) -> tensor<64xi1>
    %125 = stablehlo.broadcast_in_dim %cst_13, dims = [] : (tensor<f32>) -> tensor<64xf32>
    %126 = stablehlo.broadcast_in_dim %cst_12, dims = [] : (tensor<f32>) -> tensor<64xf32>
    %127 = stablehlo.select %124, %125, %126 : tensor<64xi1>, tensor<64xf32>
    %128 = stablehlo.broadcast_in_dim %cst_12, dims = [] : (tensor<f32>) -> tensor<64xf32>
    %129 = stablehlo.compare  EQ, %128, %123,  FLOAT : (tensor<64xf32>, tensor<64xf32>) -> tensor<64xi1>
    %130 = stablehlo.broadcast_in_dim %cst_7, dims = [] : (tensor<f32>) -> tensor<64xf32>
    %131 = stablehlo.broadcast_in_dim %cst_13, dims = [] : (tensor<f32>) -> tensor<64xf32>
    %132 = stablehlo.select %129, %130, %131 : tensor<64xi1>, tensor<64xf32>
    %133 = stablehlo.divide %127, %132 : tensor<64xf32>
    %134 = stablehlo.broadcast_in_dim %cst_14, dims = [] : (tensor<f32>) -> tensor<64xf32>
    %135 = stablehlo.multiply %134, %arg324 : tensor<64xf32>
    %136 = stablehlo.broadcast_in_dim %cst_15, dims = [] : (tensor<f32>) -> tensor<64xf32>
    %137 = stablehlo.multiply %136, %115 : tensor<64xf32>
    %138 = stablehlo.add %135, %137 : tensor<64xf32>
    %139 = stablehlo.broadcast_in_dim %cst_14, dims = [] : (tensor<f32>) -> tensor<64xf32>
    %140 = stablehlo.multiply %139, %arg325 : tensor<64xf32>
    %141 = stablehlo.broadcast_in_dim %cst_15, dims = [] : (tensor<f32>) -> tensor<64xf32>
    %142 = stablehlo.multiply %141, %123 : tensor<64xf32>
    %143 = stablehlo.add %140, %142 : tensor<64xf32>
    %144 = stablehlo.broadcast_in_dim %115, dims = [3] : (tensor<64xf32>) -> tensor<1x1x1x64xf32>
    %145 = stablehlo.broadcast_in_dim %123, dims = [3] : (tensor<64xf32>) -> tensor<1x1x1x64xf32>
    %146 = stablehlo.convert %97 : (tensor<256x56x56x64xf16>) -> tensor<256x56x56x64xf32>
    %147 = stablehlo.broadcast_in_dim %144, dims = [0, 1, 2, 3] : (tensor<1x1x1x64xf32>) -> tensor<256x56x56x64xf32>
    %148 = stablehlo.subtract %146, %147 : tensor<256x56x56x64xf32>
    %149 = stablehlo.broadcast_in_dim %cst_16, dims = [] : (tensor<f32>) -> tensor<1x1x1x64xf32>
    %150 = stablehlo.add %145, %149 : tensor<1x1x1x64xf32>
    %151 = stablehlo.rsqrt %150 : tensor<1x1x1x64xf32>
    %152 = stablehlo.divide %151, %150 : tensor<1x1x1x64xf32>
    %153 = stablehlo.broadcast_in_dim %cst_17, dims = [] : (tensor<f32>) -> tensor<1x1x1x64xf32>
    %154 = stablehlo.multiply %153, %152 : tensor<1x1x1x64xf32>
    %155 = stablehlo.reshape %arg2 : (tensor<64xf32>) -> tensor<1x1x1x64xf32>
    %156 = stablehlo.multiply %151, %155 : tensor<1x1x1x64xf32>
    %157 = stablehlo.broadcast_in_dim %156, dims = [0, 1, 2, 3] : (tensor<1x1x1x64xf32>) -> tensor<256x56x56x64xf32>
    %158 = stablehlo.multiply %148, %157 : tensor<256x56x56x64xf32>
    %159 = stablehlo.reshape %arg1 : (tensor<64xf32>) -> tensor<1x1x1x64xf32>
    %160 = stablehlo.broadcast_in_dim %159, dims = [0, 1, 2, 3] : (tensor<1x1x1x64xf32>) -> tensor<256x56x56x64xf32>
    %161 = stablehlo.add %158, %160 : tensor<256x56x56x64xf32>
    %162 = stablehlo.convert %161 : (tensor<256x56x56x64xf32>) -> tensor<256x56x56x64xf16>
    %163 = call @relu_0(%162) : (tensor<256x56x56x64xf16>) -> tensor<256x56x56x64xf16>
    %164 = stablehlo.broadcast_in_dim %cst_18, dims = [] : (tensor<f16>) -> tensor<256x56x56x64xf16>
    %165 = stablehlo.compare  GT, %162, %164,  FLOAT : (tensor<256x56x56x64xf16>, tensor<256x56x56x64xf16>) -> tensor<256x56x56x64xi1>
    %166 = stablehlo.broadcast_in_dim %cst_18, dims = [] : (tensor<f16>) -> tensor<256x56x56x64xf16>
    %167 = stablehlo.convert %arg8 : (tensor<3x3x64x64xf32>) -> tensor<3x3x64x64xf16>
    %168 = stablehlo.convolution(%163, %167) dim_numbers = [b, 0, 1, f]x[0, 1, i, o]->[b, 0, 1, f], window = {stride = [1, 1], pad = [[1, 1], [1, 1]], lhs_dilate = [1, 1], rhs_dilate = [1, 1], reverse = [false, false]} {batch_group_count = 1 : i64, feature_group_count = 1 : i64, precision_config = [#stablehlo<precision DEFAULT>, #stablehlo<precision DEFAULT>]} : (tensor<256x56x56x64xf16>, tensor<3x3x64x64xf16>) -> tensor<256x56x56x64xf16>
    %169 = stablehlo.convert %168 : (tensor<256x56x56x64xf16>) -> tensor<256x56x56x64xf32>
    %170 = stablehlo.multiply %169, %169 : tensor<256x56x56x64xf32>
    %171 = stablehlo.broadcast_in_dim %cst_7, dims = [] : (tensor<f32>) -> tensor<256x56x56x64xf32>
    %172 = stablehlo.multiply %171, %169 : tensor<256x56x56x64xf32>
    %cst_23 = stablehlo.constant dense<0.000000e+00> : tensor<f32>
    %173 = stablehlo.reduce(%169 init: %cst_23) applies stablehlo.add across dimensions = [0, 1, 2] : (tensor<256x56x56x64xf32>, tensor<f32>) -> tensor<64xf32>
    %174 = stablehlo.broadcast_in_dim %cst_21, dims = [] : (tensor<f32>) -> tensor<64xf32>
    %175 = stablehlo.divide %173, %174 : tensor<64xf32>
    %cst_24 = stablehlo.constant dense<0.000000e+00> : tensor<f32>
    %176 = stablehlo.reduce(%170 init: %cst_24) applies stablehlo.add across dimensions = [0, 1, 2] : (tensor<256x56x56x64xf32>, tensor<f32>) -> tensor<64xf32>
    %177 = stablehlo.broadcast_in_dim %cst_21, dims = [] : (tensor<f32>) -> tensor<64xf32>
    %178 = stablehlo.divide %176, %177 : tensor<64xf32>
    %179 = stablehlo.broadcast_in_dim %175, dims = [1] : (tensor<64xf32>) -> tensor<1x64xf32>
    %180 = stablehlo.broadcast_in_dim %178, dims = [1] : (tensor<64xf32>) -> tensor<1x64xf32>
    %181 = stablehlo.concatenate %179, %180, dim = 0 : (tensor<1x64xf32>, tensor<1x64xf32>) -> tensor<2x64xf32>
    %182 = "stablehlo.all_reduce"(%181) <{replica_groups = dense<[[0, 1, 2, 3]]> : tensor<1x4xi64>}> ({
    ^bb0(%arg432: tensor<f32>, %arg433: tensor<f32>):
      %9450 = stablehlo.add %arg432, %arg433 : tensor<f32>
      stablehlo.return %9450 : tensor<f32>
    }) : (tensor<2x64xf32>) -> tensor<2x64xf32>
    %183 = stablehlo.broadcast_in_dim %cst_11, dims = [] : (tensor<f32>) -> tensor<2x64xf32>
    %184 = stablehlo.divide %182, %183 : tensor<2x64xf32>
    %185 = stablehlo.slice %184 [0:1, 0:64] : (tensor<2x64xf32>) -> tensor<1x64xf32>
    %186 = stablehlo.reshape %185 : (tensor<1x64xf32>) -> tensor<64xf32>
    %187 = stablehlo.slice %184 [1:2, 0:64] : (tensor<2x64xf32>) -> tensor<1x64xf32>
    %188 = stablehlo.reshape %187 : (tensor<1x64xf32>) -> tensor<64xf32>
    %189 = stablehlo.multiply %186, %186 : tensor<64xf32>
    %190 = stablehlo.broadcast_in_dim %cst_7, dims = [] : (tensor<f32>) -> tensor<64xf32>
    %191 = stablehlo.multiply %190, %186 : tensor<64xf32>
    %192 = stablehlo.subtract %188, %189 : tensor<64xf32>
    %193 = stablehlo.broadcast_in_dim %cst_12, dims = [] : (tensor<f32>) -> tensor<64xf32>
    %194 = stablehlo.maximum %193, %192 : tensor<64xf32>
    %195 = stablehlo.compare  EQ, %192, %194,  FLOAT : (tensor<64xf32>, tensor<64xf32>) -> tensor<64xi1>
    %196 = stablehlo.broadcast_in_dim %cst_13, dims = [] : (tensor<f32>) -> tensor<64xf32>
    %197 = stablehlo.broadcast_in_dim %cst_12, dims = [] : (tensor<f32>) -> tensor<64xf32>
    %198 = stablehlo.select %195, %196, %197 : tensor<64xi1>, tensor<64xf32>
    %199 = stablehlo.broadcast_in_dim %cst_12, dims = [] : (tensor<f32>) -> tensor<64xf32>
    %200 = stablehlo.compare  EQ, %199, %194,  FLOAT : (tensor<64xf32>, tensor<64xf32>) -> tensor<64xi1>
    %201 = stablehlo.broadcast_in_dim %cst_7, dims = [] : (tensor<f32>) -> tensor<64xf32>
    %202 = stablehlo.broadcast_in_dim %cst_13, dims = [] : (tensor<f32>) -> tensor<64xf32>
    %203 = stablehlo.select %200, %201, %202 : tensor<64xi1>, tensor<64xf32>
    %204 = stablehlo.divide %198, %203 : tensor<64xf32>
    %205 = stablehlo.broadcast_in_dim %cst_14, dims = [] : (tensor<f32>) -> tensor<64xf32>
    %206 = stablehlo.multiply %205, %arg326 : tensor<64xf32>
    %207 = stablehlo.broadcast_in_dim %cst_15, dims = [] : (tensor<f32>) -> tensor<64xf32>
    %208 = stablehlo.multiply %207, %186 : tensor<64xf32>
    %209 = stablehlo.add %206, %208 : tensor<64xf32>
    %210 = stablehlo.broadcast_in_dim %cst_14, dims = [] : (tensor<f32>) -> tensor<64xf32>
    %211 = stablehlo.multiply %210, %arg327 : tensor<64xf32>
    %212 = stablehlo.broadcast_in_dim %cst_15, dims = [] : (tensor<f32>) -> tensor<64xf32>
    %213 = stablehlo.multiply %212, %194 : tensor<64xf32>
    %214 = stablehlo.add %211, %213 : tensor<64xf32>
    %215 = stablehlo.broadcast_in_dim %186, dims = [3] : (tensor<64xf32>) -> tensor<1x1x1x64xf32>
    %216 = stablehlo.broadcast_in_dim %194, dims = [3] : (tensor<64xf32>) -> tensor<1x1x1x64xf32>
    %217 = stablehlo.convert %168 : (tensor<256x56x56x64xf16>) -> tensor<256x56x56x64xf32>
    %218 = stablehlo.broadcast_in_dim %215, dims = [0, 1, 2, 3] : (tensor<1x1x1x64xf32>) -> tensor<256x56x56x64xf32>
    %219 = stablehlo.subtract %217, %218 : tensor<256x56x56x64xf32>
    %220 = stablehlo.broadcast_in_dim %cst_16, dims = [] : (tensor<f32>) -> tensor<1x1x1x64xf32>
    %221 = stablehlo.add %216, %220 : tensor<1x1x1x64xf32>
    %222 = stablehlo.rsqrt %221 : tensor<1x1x1x64xf32>
    %223 = stablehlo.divide %222, %221 : tensor<1x1x1x64xf32>
    %224 = stablehlo.broadcast_in_dim %cst_17, dims = [] : (tensor<f32>) -> tensor<1x1x1x64xf32>
    %225 = stablehlo.multiply %224, %223 : tensor<1x1x1x64xf32>
    %226 = stablehlo.reshape %arg4 : (tensor<64xf32>) -> tensor<1x1x1x64xf32>
    %227 = stablehlo.multiply %222, %226 : tensor<1x1x1x64xf32>
    %228 = stablehlo.broadcast_in_dim %227, dims = [0, 1, 2, 3] : (tensor<1x1x1x64xf32>) -> tensor<256x56x56x64xf32>
    %229 = stablehlo.multiply %219, %228 : tensor<256x56x56x64xf32>
    %230 = stablehlo.reshape %arg3 : (tensor<64xf32>) -> tensor<1x1x1x64xf32>
    %231 = stablehlo.broadcast_in_dim %230, dims = [0, 1, 2, 3] : (tensor<1x1x1x64xf32>) -> tensor<256x56x56x64xf32>
    %232 = stablehlo.add %229, %231 : tensor<256x56x56x64xf32>
    %233 = stablehlo.convert %232 : (tensor<256x56x56x64xf32>) -> tensor<256x56x56x64xf16>
    %234 = call @relu_0(%233) : (tensor<256x56x56x64xf16>) -> tensor<256x56x56x64xf16>
    %235 = stablehlo.broadcast_in_dim %cst_18, dims = [] : (tensor<f16>) -> tensor<256x56x56x64xf16>
    %236 = stablehlo.compare  GT, %233, %235,  FLOAT : (tensor<256x56x56x64xf16>, tensor<256x56x56x64xf16>) -> tensor<256x56x56x64xi1>
    %237 = stablehlo.broadcast_in_dim %cst_18, dims = [] : (tensor<f16>) -> tensor<256x56x56x64xf16>
    %238 = stablehlo.convert %arg9 : (tensor<1x1x64x256xf32>) -> tensor<1x1x64x256xf16>
    %239 = stablehlo.convolution(%234, %238) dim_numbers = [b, 0, 1, f]x[0, 1, i, o]->[b, 0, 1, f], window = {stride = [1, 1], pad = [[0, 0], [0, 0]], lhs_dilate = [1, 1], rhs_dilate = [1, 1], reverse = [false, false]} {batch_group_count = 1 : i64, feature_group_count = 1 : i64, precision_config = [#stablehlo<precision DEFAULT>, #stablehlo<precision DEFAULT>]} : (tensor<256x56x56x64xf16>, tensor<1x1x64x256xf16>) -> tensor<256x56x56x256xf16>
    %240 = stablehlo.convert %239 : (tensor<256x56x56x256xf16>) -> tensor<256x56x56x256xf32>
    %241 = stablehlo.multiply %240, %240 : tensor<256x56x56x256xf32>
    %242 = stablehlo.broadcast_in_dim %cst_7, dims = [] : (tensor<f32>) -> tensor<256x56x56x256xf32>
    %243 = stablehlo.multiply %242, %240 : tensor<256x56x56x256xf32>
    %cst_25 = stablehlo.constant dense<0.000000e+00> : tensor<f32>
    %244 = stablehlo.reduce(%240 init: %cst_25) applies stablehlo.add across dimensions = [0, 1, 2] : (tensor<256x56x56x256xf32>, tensor<f32>) -> tensor<256xf32>
    %245 = stablehlo.broadcast_in_dim %cst_21, dims = [] : (tensor<f32>) -> tensor<256xf32>
    %246 = stablehlo.divide %244, %245 : tensor<256xf32>
    %cst_26 = stablehlo.constant dense<0.000000e+00> : tensor<f32>
    %247 = stablehlo.reduce(%241 init: %cst_26) applies stablehlo.add across dimensions = [0, 1, 2] : (tensor<256x56x56x256xf32>, tensor<f32>) -> tensor<256xf32>
    %248 = stablehlo.broadcast_in_dim %cst_21, dims = [] : (tensor<f32>) -> tensor<256xf32>
    %249 = stablehlo.divide %247, %248 : tensor<256xf32>
    %250 = stablehlo.broadcast_in_dim %246, dims = [1] : (tensor<256xf32>) -> tensor<1x256xf32>
    %251 = stablehlo.broadcast_in_dim %249, dims = [1] : (tensor<256xf32>) -> tensor<1x256xf32>
    %252 = stablehlo.concatenate %250, %251, dim = 0 : (tensor<1x256xf32>, tensor<1x256xf32>) -> tensor<2x256xf32>
    %253 = "stablehlo.all_reduce"(%252) <{replica_groups = dense<[[0, 1, 2, 3]]> : tensor<1x4xi64>}> ({
    ^bb0(%arg432: tensor<f32>, %arg433: tensor<f32>):
      %9450 = stablehlo.add %arg432, %arg433 : tensor<f32>
      stablehlo.return %9450 : tensor<f32>
    }) : (tensor<2x256xf32>) -> tensor<2x256xf32>
    %254 = stablehlo.broadcast_in_dim %cst_11, dims = [] : (tensor<f32>) -> tensor<2x256xf32>
    %255 = stablehlo.divide %253, %254 : tensor<2x256xf32>
    %256 = stablehlo.slice %255 [0:1, 0:256] : (tensor<2x256xf32>) -> tensor<1x256xf32>
    %257 = stablehlo.reshape %256 : (tensor<1x256xf32>) -> tensor<256xf32>
    %258 = stablehlo.slice %255 [1:2, 0:256] : (tensor<2x256xf32>) -> tensor<1x256xf32>
    %259 = stablehlo.reshape %258 : (tensor<1x256xf32>) -> tensor<256xf32>
    %260 = stablehlo.multiply %257, %257 : tensor<256xf32>
    %261 = stablehlo.broadcast_in_dim %cst_7, dims = [] : (tensor<f32>) -> tensor<256xf32>
    %262 = stablehlo.multiply %261, %257 : tensor<256xf32>
    %263 = stablehlo.subtract %259, %260 : tensor<256xf32>
    %264 = stablehlo.broadcast_in_dim %cst_12, dims = [] : (tensor<f32>) -> tensor<256xf32>
    %265 = stablehlo.maximum %264, %263 : tensor<256xf32>
    %266 = stablehlo.compare  EQ, %263, %265,  FLOAT : (tensor<256xf32>, tensor<256xf32>) -> tensor<256xi1>
    %267 = stablehlo.broadcast_in_dim %cst_13, dims = [] : (tensor<f32>) -> tensor<256xf32>
    %268 = stablehlo.broadcast_in_dim %cst_12, dims = [] : (tensor<f32>) -> tensor<256xf32>
    %269 = stablehlo.select %266, %267, %268 : tensor<256xi1>, tensor<256xf32>
    %270 = stablehlo.broadcast_in_dim %cst_12, dims = [] : (tensor<f32>) -> tensor<256xf32>
    %271 = stablehlo.compare  EQ, %270, %265,  FLOAT : (tensor<256xf32>, tensor<256xf32>) -> tensor<256xi1>
    %272 = stablehlo.broadcast_in_dim %cst_7, dims = [] : (tensor<f32>) -> tensor<256xf32>
    %273 = stablehlo.broadcast_in_dim %cst_13, dims = [] : (tensor<f32>) -> tensor<256xf32>
    %274 = stablehlo.select %271, %272, %273 : tensor<256xi1>, tensor<256xf32>
    %275 = stablehlo.divide %269, %274 : tensor<256xf32>
    %276 = stablehlo.broadcast_in_dim %cst_14, dims = [] : (tensor<f32>) -> tensor<256xf32>
    %277 = stablehlo.multiply %276, %arg328 : tensor<256xf32>
    %278 = stablehlo.broadcast_in_dim %cst_15, dims = [] : (tensor<f32>) -> tensor<256xf32>
    %279 = stablehlo.multiply %278, %257 : tensor<256xf32>
    %280 = stablehlo.add %277, %279 : tensor<256xf32>
    %281 = stablehlo.broadcast_in_dim %cst_14, dims = [] : (tensor<f32>) -> tensor<256xf32>
    %282 = stablehlo.multiply %281, %arg329 : tensor<256xf32>
    %283 = stablehlo.broadcast_in_dim %cst_15, dims = [] : (tensor<f32>) -> tensor<256xf32>
    %284 = stablehlo.multiply %283, %265 : tensor<256xf32>
    %285 = stablehlo.add %282, %284 : tensor<256xf32>
    %286 = stablehlo.broadcast_in_dim %257, dims = [3] : (tensor<256xf32>) -> tensor<1x1x1x256xf32>
    %287 = stablehlo.broadcast_in_dim %265, dims = [3] : (tensor<256xf32>) -> tensor<1x1x1x256xf32>
    %288 = stablehlo.convert %239 : (tensor<256x56x56x256xf16>) -> tensor<256x56x56x256xf32>
    %289 = stablehlo.broadcast_in_dim %286, dims = [0, 1, 2, 3] : (tensor<1x1x1x256xf32>) -> tensor<256x56x56x256xf32>
    %290 = stablehlo.subtract %288, %289 : tensor<256x56x56x256xf32>
    %291 = stablehlo.broadcast_in_dim %cst_16, dims = [] : (tensor<f32>) -> tensor<1x1x1x256xf32>
    %292 = stablehlo.add %287, %291 : tensor<1x1x1x256xf32>
    %293 = stablehlo.rsqrt %292 : tensor<1x1x1x256xf32>
    %294 = stablehlo.divide %293, %292 : tensor<1x1x1x256xf32>
    %295 = stablehlo.broadcast_in_dim %cst_17, dims = [] : (tensor<f32>) -> tensor<1x1x1x256xf32>
    %296 = stablehlo.multiply %295, %294 : tensor<1x1x1x256xf32>
    %297 = stablehlo.reshape %arg6 : (tensor<256xf32>) -> tensor<1x1x1x256xf32>
    %298 = stablehlo.multiply %293, %297 : tensor<1x1x1x256xf32>
    %299 = stablehlo.broadcast_in_dim %298, dims = [0, 1, 2, 3] : (tensor<1x1x1x256xf32>) -> tensor<256x56x56x256xf32>
    %300 = stablehlo.multiply %290, %299 : tensor<256x56x56x256xf32>
    %301 = stablehlo.reshape %arg5 : (tensor<256xf32>) -> tensor<1x1x1x256xf32>
    %302 = stablehlo.broadcast_in_dim %301, dims = [0, 1, 2, 3] : (tensor<1x1x1x256xf32>) -> tensor<256x56x56x256xf32>
    %303 = stablehlo.add %300, %302 : tensor<256x56x56x256xf32>
    %304 = stablehlo.convert %303 : (tensor<256x56x56x256xf32>) -> tensor<256x56x56x256xf16>
    %305 = stablehlo.convert %arg10 : (tensor<1x1x64x256xf32>) -> tensor<1x1x64x256xf16>
    %306 = stablehlo.convolution(%95, %305) dim_numbers = [b, 0, 1, f]x[0, 1, i, o]->[b, 0, 1, f], window = {stride = [1, 1], pad = [[0, 0], [0, 0]], lhs_dilate = [1, 1], rhs_dilate = [1, 1], reverse = [false, false]} {batch_group_count = 1 : i64, feature_group_count = 1 : i64, precision_config = [#stablehlo<precision DEFAULT>, #stablehlo<precision DEFAULT>]} : (tensor<256x56x56x64xf16>, tensor<1x1x64x256xf16>) -> tensor<256x56x56x256xf16>
    %307 = stablehlo.convert %306 : (tensor<256x56x56x256xf16>) -> tensor<256x56x56x256xf32>
    %308 = stablehlo.multiply %307, %307 : tensor<256x56x56x256xf32>
    %309 = stablehlo.broadcast_in_dim %cst_7, dims = [] : (tensor<f32>) -> tensor<256x56x56x256xf32>
    %310 = stablehlo.multiply %309, %307 : tensor<256x56x56x256xf32>
    %cst_27 = stablehlo.constant dense<0.000000e+00> : tensor<f32>
    %311 = stablehlo.reduce(%307 init: %cst_27) applies stablehlo.add across dimensions = [0, 1, 2] : (tensor<256x56x56x256xf32>, tensor<f32>) -> tensor<256xf32>
    %312 = stablehlo.broadcast_in_dim %cst_21, dims = [] : (tensor<f32>) -> tensor<256xf32>
    %313 = stablehlo.divide %311, %312 : tensor<256xf32>
    %cst_28 = stablehlo.constant dense<0.000000e+00> : tensor<f32>
    %314 = stablehlo.reduce(%308 init: %cst_28) applies stablehlo.add across dimensions = [0, 1, 2] : (tensor<256x56x56x256xf32>, tensor<f32>) -> tensor<256xf32>
    %315 = stablehlo.broadcast_in_dim %cst_21, dims = [] : (tensor<f32>) -> tensor<256xf32>
    %316 = stablehlo.divide %314, %315 : tensor<256xf32>
    %317 = stablehlo.broadcast_in_dim %313, dims = [1] : (tensor<256xf32>) -> tensor<1x256xf32>
    %318 = stablehlo.broadcast_in_dim %316, dims = [1] : (tensor<256xf32>) -> tensor<1x256xf32>
    %319 = stablehlo.concatenate %317, %318, dim = 0 : (tensor<1x256xf32>, tensor<1x256xf32>) -> tensor<2x256xf32>
    %320 = "stablehlo.all_reduce"(%319) <{replica_groups = dense<[[0, 1, 2, 3]]> : tensor<1x4xi64>}> ({
    ^bb0(%arg432: tensor<f32>, %arg433: tensor<f32>):
      %9450 = stablehlo.add %arg432, %arg433 : tensor<f32>
      stablehlo.return %9450 : tensor<f32>
    }) : (tensor<2x256xf32>) -> tensor<2x256xf32>
    %321 = stablehlo.broadcast_in_dim %cst_11, dims = [] : (tensor<f32>) -> tensor<2x256xf32>
    %322 = stablehlo.divide %320, %321 : tensor<2x256xf32>
    %323 = stablehlo.slice %322 [0:1, 0:256] : (tensor<2x256xf32>) -> tensor<1x256xf32>
    %324 = stablehlo.reshape %323 : (tensor<1x256xf32>) -> tensor<256xf32>
    %325 = stablehlo.slice %322 [1:2, 0:256] : (tensor<2x256xf32>) -> tensor<1x256xf32>
    %326 = stablehlo.reshape %325 : (tensor<1x256xf32>) -> tensor<256xf32>
    %327 = stablehlo.multiply %324, %324 : tensor<256xf32>
    %328 = stablehlo.broadcast_in_dim %cst_7, dims = [] : (tensor<f32>) -> tensor<256xf32>
    %329 = stablehlo.multiply %328, %324 : tensor<256xf32>
    %330 = stablehlo.subtract %326, %327 : tensor<256xf32>
    %331 = stablehlo.broadcast_in_dim %cst_12, dims = [] : (tensor<f32>) -> tensor<256xf32>
    %332 = stablehlo.maximum %331, %330 : tensor<256xf32>
    %333 = stablehlo.compare  EQ, %330, %332,  FLOAT : (tensor<256xf32>, tensor<256xf32>) -> tensor<256xi1>
    %334 = stablehlo.broadcast_in_dim %cst_13, dims = [] : (tensor<f32>) -> tensor<256xf32>
    %335 = stablehlo.broadcast_in_dim %cst_12, dims = [] : (tensor<f32>) -> tensor<256xf32>
    %336 = stablehlo.select %333, %334, %335 : tensor<256xi1>, tensor<256xf32>
    %337 = stablehlo.broadcast_in_dim %cst_12, dims = [] : (tensor<f32>) -> tensor<256xf32>
    %338 = stablehlo.compare  EQ, %337, %332,  FLOAT : (tensor<256xf32>, tensor<256xf32>) -> tensor<256xi1>
    %339 = stablehlo.broadcast_in_dim %cst_7, dims = [] : (tensor<f32>) -> tensor<256xf32>
    %340 = stablehlo.broadcast_in_dim %cst_13, dims = [] : (tensor<f32>) -> tensor<256xf32>
    %341 = stablehlo.select %338, %339, %340 : tensor<256xi1>, tensor<256xf32>
    %342 = stablehlo.divide %336, %341 : tensor<256xf32>
    %343 = stablehlo.broadcast_in_dim %cst_14, dims = [] : (tensor<f32>) -> tensor<256xf32>
    %344 = stablehlo.multiply %343, %arg330 : tensor<256xf32>
    %345 = stablehlo.broadcast_in_dim %cst_15, dims = [] : (tensor<f32>) -> tensor<256xf32>
    %346 = stablehlo.multiply %345, %324 : tensor<256xf32>
    %347 = stablehlo.add %344, %346 : tensor<256xf32>
    %348 = stablehlo.broadcast_in_dim %cst_14, dims = [] : (tensor<f32>) -> tensor<256xf32>
    %349 = stablehlo.multiply %348, %arg331 : tensor<256xf32>
    %350 = stablehlo.broadcast_in_dim %cst_15, dims = [] : (tensor<f32>) -> tensor<256xf32>
    %351 = stablehlo.multiply %350, %332 : tensor<256xf32>
    %352 = stablehlo.add %349, %351 : tensor<256xf32>
    %353 = stablehlo.broadcast_in_dim %324, dims = [3] : (tensor<256xf32>) -> tensor<1x1x1x256xf32>
    %354 = stablehlo.broadcast_in_dim %332, dims = [3] : (tensor<256xf32>) -> tensor<1x1x1x256xf32>
    %355 = stablehlo.convert %306 : (tensor<256x56x56x256xf16>) -> tensor<256x56x56x256xf32>
    %356 = stablehlo.broadcast_in_dim %353, dims = [0, 1, 2, 3] : (tensor<1x1x1x256xf32>) -> tensor<256x56x56x256xf32>
    %357 = stablehlo.subtract %355, %356 : tensor<256x56x56x256xf32>
    %358 = stablehlo.broadcast_in_dim %cst_16, dims = [] : (tensor<f32>) -> tensor<1x1x1x256xf32>
    %359 = stablehlo.add %354, %358 : tensor<1x1x1x256xf32>
    %360 = stablehlo.rsqrt %359 : tensor<1x1x1x256xf32>
    %361 = stablehlo.divide %360, %359 : tensor<1x1x1x256xf32>
    %362 = stablehlo.broadcast_in_dim %cst_17, dims = [] : (tensor<f32>) -> tensor<1x1x1x256xf32>
    %363 = stablehlo.multiply %362, %361 : tensor<1x1x1x256xf32>
    %364 = stablehlo.reshape %arg12 : (tensor<256xf32>) -> tensor<1x1x1x256xf32>
    %365 = stablehlo.multiply %360, %364 : tensor<1x1x1x256xf32>
    %366 = stablehlo.broadcast_in_dim %365, dims = [0, 1, 2, 3] : (tensor<1x1x1x256xf32>) -> tensor<256x56x56x256xf32>
    %367 = stablehlo.multiply %357, %366 : tensor<256x56x56x256xf32>
    %368 = stablehlo.reshape %arg11 : (tensor<256xf32>) -> tensor<1x1x1x256xf32>
    %369 = stablehlo.broadcast_in_dim %368, dims = [0, 1, 2, 3] : (tensor<1x1x1x256xf32>) -> tensor<256x56x56x256xf32>
    %370 = stablehlo.add %367, %369 : tensor<256x56x56x256xf32>
    %371 = stablehlo.convert %370 : (tensor<256x56x56x256xf32>) -> tensor<256x56x56x256xf16>
    %372 = stablehlo.add %371, %304 : tensor<256x56x56x256xf16>
    %373 = call @relu_1(%372) : (tensor<256x56x56x256xf16>) -> tensor<256x56x56x256xf16>
    %374 = stablehlo.broadcast_in_dim %cst_18, dims = [] : (tensor<f16>) -> tensor<256x56x56x256xf16>
    %375 = stablehlo.compare  GT, %372, %374,  FLOAT : (tensor<256x56x56x256xf16>, tensor<256x56x56x256xf16>) -> tensor<256x56x56x256xi1>
    %376 = stablehlo.broadcast_in_dim %cst_18, dims = [] : (tensor<f16>) -> tensor<256x56x56x256xf16>
    %377 = stablehlo.convert %arg19 : (tensor<1x1x256x64xf32>) -> tensor<1x1x256x64xf16>
    %378 = stablehlo.convolution(%373, %377) dim_numbers = [b, 0, 1, f]x[0, 1, i, o]->[b, 0, 1, f], window = {stride = [1, 1], pad = [[0, 0], [0, 0]], lhs_dilate = [1, 1], rhs_dilate = [1, 1], reverse = [false, false]} {batch_group_count = 1 : i64, feature_group_count = 1 : i64, precision_config = [#stablehlo<precision DEFAULT>, #stablehlo<precision DEFAULT>]} : (tensor<256x56x56x256xf16>, tensor<1x1x256x64xf16>) -> tensor<256x56x56x64xf16>
    %379 = stablehlo.convert %378 : (tensor<256x56x56x64xf16>) -> tensor<256x56x56x64xf32>
    %380 = stablehlo.multiply %379, %379 : tensor<256x56x56x64xf32>
    %381 = stablehlo.broadcast_in_dim %cst_7, dims = [] : (tensor<f32>) -> tensor<256x56x56x64xf32>
    %382 = stablehlo.multiply %381, %379 : tensor<256x56x56x64xf32>
    %cst_29 = stablehlo.constant dense<0.000000e+00> : tensor<f32>
    %383 = stablehlo.reduce(%379 init: %cst_29) applies stablehlo.add across dimensions = [0, 1, 2] : (tensor<256x56x56x64xf32>, tensor<f32>) -> tensor<64xf32>
    %384 = stablehlo.broadcast_in_dim %cst_21, dims = [] : (tensor<f32>) -> tensor<64xf32>
    %385 = stablehlo.divide %383, %384 : tensor<64xf32>
    %cst_30 = stablehlo.constant dense<0.000000e+00> : tensor<f32>
    %386 = stablehlo.reduce(%380 init: %cst_30) applies stablehlo.add across dimensions = [0, 1, 2] : (tensor<256x56x56x64xf32>, tensor<f32>) -> tensor<64xf32>
    %387 = stablehlo.broadcast_in_dim %cst_21, dims = [] : (tensor<f32>) -> tensor<64xf32>
    %388 = stablehlo.divide %386, %387 : tensor<64xf32>
    %389 = stablehlo.broadcast_in_dim %385, dims = [1] : (tensor<64xf32>) -> tensor<1x64xf32>
    %390 = stablehlo.broadcast_in_dim %388, dims = [1] : (tensor<64xf32>) -> tensor<1x64xf32>
    %391 = stablehlo.concatenate %389, %390, dim = 0 : (tensor<1x64xf32>, tensor<1x64xf32>) -> tensor<2x64xf32>
    %392 = "stablehlo.all_reduce"(%391) <{replica_groups = dense<[[0, 1, 2, 3]]> : tensor<1x4xi64>}> ({
    ^bb0(%arg432: tensor<f32>, %arg433: tensor<f32>):
      %9450 = stablehlo.add %arg432, %arg433 : tensor<f32>
      stablehlo.return %9450 : tensor<f32>
    }) : (tensor<2x64xf32>) -> tensor<2x64xf32>
    %393 = stablehlo.broadcast_in_dim %cst_11, dims = [] : (tensor<f32>) -> tensor<2x64xf32>
    %394 = stablehlo.divide %392, %393 : tensor<2x64xf32>
    %395 = stablehlo.slice %394 [0:1, 0:64] : (tensor<2x64xf32>) -> tensor<1x64xf32>
    %396 = stablehlo.reshape %395 : (tensor<1x64xf32>) -> tensor<64xf32>
    %397 = stablehlo.slice %394 [1:2, 0:64] : (tensor<2x64xf32>) -> tensor<1x64xf32>
    %398 = stablehlo.reshape %397 : (tensor<1x64xf32>) -> tensor<64xf32>
    %399 = stablehlo.multiply %396, %396 : tensor<64xf32>
    %400 = stablehlo.broadcast_in_dim %cst_7, dims = [] : (tensor<f32>) -> tensor<64xf32>
    %401 = stablehlo.multiply %400, %396 : tensor<64xf32>
    %402 = stablehlo.subtract %398, %399 : tensor<64xf32>
    %403 = stablehlo.broadcast_in_dim %cst_12, dims = [] : (tensor<f32>) -> tensor<64xf32>
    %404 = stablehlo.maximum %403, %402 : tensor<64xf32>
    %405 = stablehlo.compare  EQ, %402, %404,  FLOAT : (tensor<64xf32>, tensor<64xf32>) -> tensor<64xi1>
    %406 = stablehlo.broadcast_in_dim %cst_13, dims = [] : (tensor<f32>) -> tensor<64xf32>
    %407 = stablehlo.broadcast_in_dim %cst_12, dims = [] : (tensor<f32>) -> tensor<64xf32>
    %408 = stablehlo.select %405, %406, %407 : tensor<64xi1>, tensor<64xf32>
    %409 = stablehlo.broadcast_in_dim %cst_12, dims = [] : (tensor<f32>) -> tensor<64xf32>
    %410 = stablehlo.compare  EQ, %409, %404,  FLOAT : (tensor<64xf32>, tensor<64xf32>) -> tensor<64xi1>
    %411 = stablehlo.broadcast_in_dim %cst_7, dims = [] : (tensor<f32>) -> tensor<64xf32>
    %412 = stablehlo.broadcast_in_dim %cst_13, dims = [] : (tensor<f32>) -> tensor<64xf32>
    %413 = stablehlo.select %410, %411, %412 : tensor<64xi1>, tensor<64xf32>
    %414 = stablehlo.divide %408, %413 : tensor<64xf32>
    %415 = stablehlo.broadcast_in_dim %cst_14, dims = [] : (tensor<f32>) -> tensor<64xf32>
    %416 = stablehlo.multiply %415, %arg332 : tensor<64xf32>
    %417 = stablehlo.broadcast_in_dim %cst_15, dims = [] : (tensor<f32>) -> tensor<64xf32>
    %418 = stablehlo.multiply %417, %396 : tensor<64xf32>
    %419 = stablehlo.add %416, %418 : tensor<64xf32>
    %420 = stablehlo.broadcast_in_dim %cst_14, dims = [] : (tensor<f32>) -> tensor<64xf32>
    %421 = stablehlo.multiply %420, %arg333 : tensor<64xf32>
    %422 = stablehlo.broadcast_in_dim %cst_15, dims = [] : (tensor<f32>) -> tensor<64xf32>
    %423 = stablehlo.multiply %422, %404 : tensor<64xf32>
    %424 = stablehlo.add %421, %423 : tensor<64xf32>
    %425 = stablehlo.broadcast_in_dim %396, dims = [3] : (tensor<64xf32>) -> tensor<1x1x1x64xf32>
    %426 = stablehlo.broadcast_in_dim %404, dims = [3] : (tensor<64xf32>) -> tensor<1x1x1x64xf32>
    %427 = stablehlo.convert %378 : (tensor<256x56x56x64xf16>) -> tensor<256x56x56x64xf32>
    %428 = stablehlo.broadcast_in_dim %425, dims = [0, 1, 2, 3] : (tensor<1x1x1x64xf32>) -> tensor<256x56x56x64xf32>
    %429 = stablehlo.subtract %427, %428 : tensor<256x56x56x64xf32>
    %430 = stablehlo.broadcast_in_dim %cst_16, dims = [] : (tensor<f32>) -> tensor<1x1x1x64xf32>
    %431 = stablehlo.add %426, %430 : tensor<1x1x1x64xf32>
    %432 = stablehlo.rsqrt %431 : tensor<1x1x1x64xf32>
    %433 = stablehlo.divide %432, %431 : tensor<1x1x1x64xf32>
    %434 = stablehlo.broadcast_in_dim %cst_17, dims = [] : (tensor<f32>) -> tensor<1x1x1x64xf32>
    %435 = stablehlo.multiply %434, %433 : tensor<1x1x1x64xf32>
    %436 = stablehlo.reshape %arg14 : (tensor<64xf32>) -> tensor<1x1x1x64xf32>
    %437 = stablehlo.multiply %432, %436 : tensor<1x1x1x64xf32>
    %438 = stablehlo.broadcast_in_dim %437, dims = [0, 1, 2, 3] : (tensor<1x1x1x64xf32>) -> tensor<256x56x56x64xf32>
    %439 = stablehlo.multiply %429, %438 : tensor<256x56x56x64xf32>
    %440 = stablehlo.reshape %arg13 : (tensor<64xf32>) -> tensor<1x1x1x64xf32>
    %441 = stablehlo.broadcast_in_dim %440, dims = [0, 1, 2, 3] : (tensor<1x1x1x64xf32>) -> tensor<256x56x56x64xf32>
    %442 = stablehlo.add %439, %441 : tensor<256x56x56x64xf32>
    %443 = stablehlo.convert %442 : (tensor<256x56x56x64xf32>) -> tensor<256x56x56x64xf16>
    %444 = call @relu_0(%443) : (tensor<256x56x56x64xf16>) -> tensor<256x56x56x64xf16>
    %445 = stablehlo.broadcast_in_dim %cst_18, dims = [] : (tensor<f16>) -> tensor<256x56x56x64xf16>
    %446 = stablehlo.compare  GT, %443, %445,  FLOAT : (tensor<256x56x56x64xf16>, tensor<256x56x56x64xf16>) -> tensor<256x56x56x64xi1>
    %447 = stablehlo.broadcast_in_dim %cst_18, dims = [] : (tensor<f16>) -> tensor<256x56x56x64xf16>
    %448 = stablehlo.convert %arg20 : (tensor<3x3x64x64xf32>) -> tensor<3x3x64x64xf16>
    %449 = stablehlo.convolution(%444, %448) dim_numbers = [b, 0, 1, f]x[0, 1, i, o]->[b, 0, 1, f], window = {stride = [1, 1], pad = [[1, 1], [1, 1]], lhs_dilate = [1, 1], rhs_dilate = [1, 1], reverse = [false, false]} {batch_group_count = 1 : i64, feature_group_count = 1 : i64, precision_config = [#stablehlo<precision DEFAULT>, #stablehlo<precision DEFAULT>]} : (tensor<256x56x56x64xf16>, tensor<3x3x64x64xf16>) -> tensor<256x56x56x64xf16>
    %450 = stablehlo.convert %449 : (tensor<256x56x56x64xf16>) -> tensor<256x56x56x64xf32>
    %451 = stablehlo.multiply %450, %450 : tensor<256x56x56x64xf32>
    %452 = stablehlo.broadcast_in_dim %cst_7, dims = [] : (tensor<f32>) -> tensor<256x56x56x64xf32>
    %453 = stablehlo.multiply %452, %450 : tensor<256x56x56x64xf32>
    %cst_31 = stablehlo.constant dense<0.000000e+00> : tensor<f32>
    %454 = stablehlo.reduce(%450 init: %cst_31) applies stablehlo.add across dimensions = [0, 1, 2] : (tensor<256x56x56x64xf32>, tensor<f32>) -> tensor<64xf32>
    %455 = stablehlo.broadcast_in_dim %cst_21, dims = [] : (tensor<f32>) -> tensor<64xf32>
    %456 = stablehlo.divide %454, %455 : tensor<64xf32>
    %cst_32 = stablehlo.constant dense<0.000000e+00> : tensor<f32>
    %457 = stablehlo.reduce(%451 init: %cst_32) applies stablehlo.add across dimensions = [0, 1, 2] : (tensor<256x56x56x64xf32>, tensor<f32>) -> tensor<64xf32>
    %458 = stablehlo.broadcast_in_dim %cst_21, dims = [] : (tensor<f32>) -> tensor<64xf32>
    %459 = stablehlo.divide %457, %458 : tensor<64xf32>
    %460 = stablehlo.broadcast_in_dim %456, dims = [1] : (tensor<64xf32>) -> tensor<1x64xf32>
    %461 = stablehlo.broadcast_in_dim %459, dims = [1] : (tensor<64xf32>) -> tensor<1x64xf32>
    %462 = stablehlo.concatenate %460, %461, dim = 0 : (tensor<1x64xf32>, tensor<1x64xf32>) -> tensor<2x64xf32>
    %463 = "stablehlo.all_reduce"(%462) <{replica_groups = dense<[[0, 1, 2, 3]]> : tensor<1x4xi64>}> ({
    ^bb0(%arg432: tensor<f32>, %arg433: tensor<f32>):
      %9450 = stablehlo.add %arg432, %arg433 : tensor<f32>
      stablehlo.return %9450 : tensor<f32>
    }) : (tensor<2x64xf32>) -> tensor<2x64xf32>
    %464 = stablehlo.broadcast_in_dim %cst_11, dims = [] : (tensor<f32>) -> tensor<2x64xf32>
    %465 = stablehlo.divide %463, %464 : tensor<2x64xf32>
    %466 = stablehlo.slice %465 [0:1, 0:64] : (tensor<2x64xf32>) -> tensor<1x64xf32>
    %467 = stablehlo.reshape %466 : (tensor<1x64xf32>) -> tensor<64xf32>
    %468 = stablehlo.slice %465 [1:2, 0:64] : (tensor<2x64xf32>) -> tensor<1x64xf32>
    %469 = stablehlo.reshape %468 : (tensor<1x64xf32>) -> tensor<64xf32>
    %470 = stablehlo.multiply %467, %467 : tensor<64xf32>
    %471 = stablehlo.broadcast_in_dim %cst_7, dims = [] : (tensor<f32>) -> tensor<64xf32>
    %472 = stablehlo.multiply %471, %467 : tensor<64xf32>
    %473 = stablehlo.subtract %469, %470 : tensor<64xf32>
    %474 = stablehlo.broadcast_in_dim %cst_12, dims = [] : (tensor<f32>) -> tensor<64xf32>
    %475 = stablehlo.maximum %474, %473 : tensor<64xf32>
    %476 = stablehlo.compare  EQ, %473, %475,  FLOAT : (tensor<64xf32>, tensor<64xf32>) -> tensor<64xi1>
    %477 = stablehlo.broadcast_in_dim %cst_13, dims = [] : (tensor<f32>) -> tensor<64xf32>
    %478 = stablehlo.broadcast_in_dim %cst_12, dims = [] : (tensor<f32>) -> tensor<64xf32>
    %479 = stablehlo.select %476, %477, %478 : tensor<64xi1>, tensor<64xf32>
    %480 = stablehlo.broadcast_in_dim %cst_12, dims = [] : (tensor<f32>) -> tensor<64xf32>
    %481 = stablehlo.compare  EQ, %480, %475,  FLOAT : (tensor<64xf32>, tensor<64xf32>) -> tensor<64xi1>
    %482 = stablehlo.broadcast_in_dim %cst_7, dims = [] : (tensor<f32>) -> tensor<64xf32>
    %483 = stablehlo.broadcast_in_dim %cst_13, dims = [] : (tensor<f32>) -> tensor<64xf32>
    %484 = stablehlo.select %481, %482, %483 : tensor<64xi1>, tensor<64xf32>
    %485 = stablehlo.divide %479, %484 : tensor<64xf32>
    %486 = stablehlo.broadcast_in_dim %cst_14, dims = [] : (tensor<f32>) -> tensor<64xf32>
    %487 = stablehlo.multiply %486, %arg334 : tensor<64xf32>
    %488 = stablehlo.broadcast_in_dim %cst_15, dims = [] : (tensor<f32>) -> tensor<64xf32>
    %489 = stablehlo.multiply %488, %467 : tensor<64xf32>
    %490 = stablehlo.add %487, %489 : tensor<64xf32>
    %491 = stablehlo.broadcast_in_dim %cst_14, dims = [] : (tensor<f32>) -> tensor<64xf32>
    %492 = stablehlo.multiply %491, %arg335 : tensor<64xf32>
    %493 = stablehlo.broadcast_in_dim %cst_15, dims = [] : (tensor<f32>) -> tensor<64xf32>
    %494 = stablehlo.multiply %493, %475 : tensor<64xf32>
    %495 = stablehlo.add %492, %494 : tensor<64xf32>
    %496 = stablehlo.broadcast_in_dim %467, dims = [3] : (tensor<64xf32>) -> tensor<1x1x1x64xf32>
    %497 = stablehlo.broadcast_in_dim %475, dims = [3] : (tensor<64xf32>) -> tensor<1x1x1x64xf32>
    %498 = stablehlo.convert %449 : (tensor<256x56x56x64xf16>) -> tensor<256x56x56x64xf32>
    %499 = stablehlo.broadcast_in_dim %496, dims = [0, 1, 2, 3] : (tensor<1x1x1x64xf32>) -> tensor<256x56x56x64xf32>
    %500 = stablehlo.subtract %498, %499 : tensor<256x56x56x64xf32>
    %501 = stablehlo.broadcast_in_dim %cst_16, dims = [] : (tensor<f32>) -> tensor<1x1x1x64xf32>
    %502 = stablehlo.add %497, %501 : tensor<1x1x1x64xf32>
    %503 = stablehlo.rsqrt %502 : tensor<1x1x1x64xf32>
    %504 = stablehlo.divide %503, %502 : tensor<1x1x1x64xf32>
    %505 = stablehlo.broadcast_in_dim %cst_17, dims = [] : (tensor<f32>) -> tensor<1x1x1x64xf32>
    %506 = stablehlo.multiply %505, %504 : tensor<1x1x1x64xf32>
    %507 = stablehlo.reshape %arg16 : (tensor<64xf32>) -> tensor<1x1x1x64xf32>
    %508 = stablehlo.multiply %503, %507 : tensor<1x1x1x64xf32>
    %509 = stablehlo.broadcast_in_dim %508, dims = [0, 1, 2, 3] : (tensor<1x1x1x64xf32>) -> tensor<256x56x56x64xf32>
    %510 = stablehlo.multiply %500, %509 : tensor<256x56x56x64xf32>
    %511 = stablehlo.reshape %arg15 : (tensor<64xf32>) -> tensor<1x1x1x64xf32>
    %512 = stablehlo.broadcast_in_dim %511, dims = [0, 1, 2, 3] : (tensor<1x1x1x64xf32>) -> tensor<256x56x56x64xf32>
    %513 = stablehlo.add %510, %512 : tensor<256x56x56x64xf32>
    %514 = stablehlo.convert %513 : (tensor<256x56x56x64xf32>) -> tensor<256x56x56x64xf16>
    %515 = call @relu_0(%514) : (tensor<256x56x56x64xf16>) -> tensor<256x56x56x64xf16>
    %516 = stablehlo.broadcast_in_dim %cst_18, dims = [] : (tensor<f16>) -> tensor<256x56x56x64xf16>
    %517 = stablehlo.compare  GT, %514, %516,  FLOAT : (tensor<256x56x56x64xf16>, tensor<256x56x56x64xf16>) -> tensor<256x56x56x64xi1>
    %518 = stablehlo.broadcast_in_dim %cst_18, dims = [] : (tensor<f16>) -> tensor<256x56x56x64xf16>
    %519 = stablehlo.convert %arg21 : (tensor<1x1x64x256xf32>) -> tensor<1x1x64x256xf16>
    %520 = stablehlo.convolution(%515, %519) dim_numbers = [b, 0, 1, f]x[0, 1, i, o]->[b, 0, 1, f], window = {stride = [1, 1], pad = [[0, 0], [0, 0]], lhs_dilate = [1, 1], rhs_dilate = [1, 1], reverse = [false, false]} {batch_group_count = 1 : i64, feature_group_count = 1 : i64, precision_config = [#stablehlo<precision DEFAULT>, #stablehlo<precision DEFAULT>]} : (tensor<256x56x56x64xf16>, tensor<1x1x64x256xf16>) -> tensor<256x56x56x256xf16>
    %521 = stablehlo.convert %520 : (tensor<256x56x56x256xf16>) -> tensor<256x56x56x256xf32>
    %522 = stablehlo.multiply %521, %521 : tensor<256x56x56x256xf32>
    %523 = stablehlo.broadcast_in_dim %cst_7, dims = [] : (tensor<f32>) -> tensor<256x56x56x256xf32>
    %524 = stablehlo.multiply %523, %521 : tensor<256x56x56x256xf32>
    %cst_33 = stablehlo.constant dense<0.000000e+00> : tensor<f32>
    %525 = stablehlo.reduce(%521 init: %cst_33) applies stablehlo.add across dimensions = [0, 1, 2] : (tensor<256x56x56x256xf32>, tensor<f32>) -> tensor<256xf32>
    %526 = stablehlo.broadcast_in_dim %cst_21, dims = [] : (tensor<f32>) -> tensor<256xf32>
    %527 = stablehlo.divide %525, %526 : tensor<256xf32>
    %cst_34 = stablehlo.constant dense<0.000000e+00> : tensor<f32>
    %528 = stablehlo.reduce(%522 init: %cst_34) applies stablehlo.add across dimensions = [0, 1, 2] : (tensor<256x56x56x256xf32>, tensor<f32>) -> tensor<256xf32>
    %529 = stablehlo.broadcast_in_dim %cst_21, dims = [] : (tensor<f32>) -> tensor<256xf32>
    %530 = stablehlo.divide %528, %529 : tensor<256xf32>
    %531 = stablehlo.broadcast_in_dim %527, dims = [1] : (tensor<256xf32>) -> tensor<1x256xf32>
    %532 = stablehlo.broadcast_in_dim %530, dims = [1] : (tensor<256xf32>) -> tensor<1x256xf32>
    %533 = stablehlo.concatenate %531, %532, dim = 0 : (tensor<1x256xf32>, tensor<1x256xf32>) -> tensor<2x256xf32>
    %534 = "stablehlo.all_reduce"(%533) <{replica_groups = dense<[[0, 1, 2, 3]]> : tensor<1x4xi64>}> ({
    ^bb0(%arg432: tensor<f32>, %arg433: tensor<f32>):
      %9450 = stablehlo.add %arg432, %arg433 : tensor<f32>
      stablehlo.return %9450 : tensor<f32>
    }) : (tensor<2x256xf32>) -> tensor<2x256xf32>
    %535 = stablehlo.broadcast_in_dim %cst_11, dims = [] : (tensor<f32>) -> tensor<2x256xf32>
    %536 = stablehlo.divide %534, %535 : tensor<2x256xf32>
    %537 = stablehlo.slice %536 [0:1, 0:256] : (tensor<2x256xf32>) -> tensor<1x256xf32>
    %538 = stablehlo.reshape %537 : (tensor<1x256xf32>) -> tensor<256xf32>
    %539 = stablehlo.slice %536 [1:2, 0:256] : (tensor<2x256xf32>) -> tensor<1x256xf32>
    %540 = stablehlo.reshape %539 : (tensor<1x256xf32>) -> tensor<256xf32>
    %541 = stablehlo.multiply %538, %538 : tensor<256xf32>
    %542 = stablehlo.broadcast_in_dim %cst_7, dims = [] : (tensor<f32>) -> tensor<256xf32>
    %543 = stablehlo.multiply %542, %538 : tensor<256xf32>
    %544 = stablehlo.subtract %540, %541 : tensor<256xf32>
    %545 = stablehlo.broadcast_in_dim %cst_12, dims = [] : (tensor<f32>) -> tensor<256xf32>
    %546 = stablehlo.maximum %545, %544 : tensor<256xf32>
    %547 = stablehlo.compare  EQ, %544, %546,  FLOAT : (tensor<256xf32>, tensor<256xf32>) -> tensor<256xi1>
    %548 = stablehlo.broadcast_in_dim %cst_13, dims = [] : (tensor<f32>) -> tensor<256xf32>
    %549 = stablehlo.broadcast_in_dim %cst_12, dims = [] : (tensor<f32>) -> tensor<256xf32>
    %550 = stablehlo.select %547, %548, %549 : tensor<256xi1>, tensor<256xf32>
    %551 = stablehlo.broadcast_in_dim %cst_12, dims = [] : (tensor<f32>) -> tensor<256xf32>
    %552 = stablehlo.compare  EQ, %551, %546,  FLOAT : (tensor<256xf32>, tensor<256xf32>) -> tensor<256xi1>
    %553 = stablehlo.broadcast_in_dim %cst_7, dims = [] : (tensor<f32>) -> tensor<256xf32>
    %554 = stablehlo.broadcast_in_dim %cst_13, dims = [] : (tensor<f32>) -> tensor<256xf32>
    %555 = stablehlo.select %552, %553, %554 : tensor<256xi1>, tensor<256xf32>
    %556 = stablehlo.divide %550, %555 : tensor<256xf32>
    %557 = stablehlo.broadcast_in_dim %cst_14, dims = [] : (tensor<f32>) -> tensor<256xf32>
    %558 = stablehlo.multiply %557, %arg336 : tensor<256xf32>
    %559 = stablehlo.broadcast_in_dim %cst_15, dims = [] : (tensor<f32>) -> tensor<256xf32>
    %560 = stablehlo.multiply %559, %538 : tensor<256xf32>
    %561 = stablehlo.add %558, %560 : tensor<256xf32>
    %562 = stablehlo.broadcast_in_dim %cst_14, dims = [] : (tensor<f32>) -> tensor<256xf32>
    %563 = stablehlo.multiply %562, %arg337 : tensor<256xf32>
    %564 = stablehlo.broadcast_in_dim %cst_15, dims = [] : (tensor<f32>) -> tensor<256xf32>
    %565 = stablehlo.multiply %564, %546 : tensor<256xf32>
    %566 = stablehlo.add %563, %565 : tensor<256xf32>
    %567 = stablehlo.broadcast_in_dim %538, dims = [3] : (tensor<256xf32>) -> tensor<1x1x1x256xf32>
    %568 = stablehlo.broadcast_in_dim %546, dims = [3] : (tensor<256xf32>) -> tensor<1x1x1x256xf32>
    %569 = stablehlo.convert %520 : (tensor<256x56x56x256xf16>) -> tensor<256x56x56x256xf32>
    %570 = stablehlo.broadcast_in_dim %567, dims = [0, 1, 2, 3] : (tensor<1x1x1x256xf32>) -> tensor<256x56x56x256xf32>
    %571 = stablehlo.subtract %569, %570 : tensor<256x56x56x256xf32>
    %572 = stablehlo.broadcast_in_dim %cst_16, dims = [] : (tensor<f32>) -> tensor<1x1x1x256xf32>
    %573 = stablehlo.add %568, %572 : tensor<1x1x1x256xf32>
    %574 = stablehlo.rsqrt %573 : tensor<1x1x1x256xf32>
    %575 = stablehlo.divide %574, %573 : tensor<1x1x1x256xf32>
    %576 = stablehlo.broadcast_in_dim %cst_17, dims = [] : (tensor<f32>) -> tensor<1x1x1x256xf32>
    %577 = stablehlo.multiply %576, %575 : tensor<1x1x1x256xf32>
    %578 = stablehlo.reshape %arg18 : (tensor<256xf32>) -> tensor<1x1x1x256xf32>
    %579 = stablehlo.multiply %574, %578 : tensor<1x1x1x256xf32>
    %580 = stablehlo.broadcast_in_dim %579, dims = [0, 1, 2, 3] : (tensor<1x1x1x256xf32>) -> tensor<256x56x56x256xf32>
    %581 = stablehlo.multiply %571, %580 : tensor<256x56x56x256xf32>
    %582 = stablehlo.reshape %arg17 : (tensor<256xf32>) -> tensor<1x1x1x256xf32>
    %583 = stablehlo.broadcast_in_dim %582, dims = [0, 1, 2, 3] : (tensor<1x1x1x256xf32>) -> tensor<256x56x56x256xf32>
    %584 = stablehlo.add %581, %583 : tensor<256x56x56x256xf32>
    %585 = stablehlo.convert %584 : (tensor<256x56x56x256xf32>) -> tensor<256x56x56x256xf16>
    %586 = stablehlo.add %373, %585 : tensor<256x56x56x256xf16>
    %587 = call @relu_1(%586) : (tensor<256x56x56x256xf16>) -> tensor<256x56x56x256xf16>
    %588 = stablehlo.broadcast_in_dim %cst_18, dims = [] : (tensor<f16>) -> tensor<256x56x56x256xf16>
    %589 = stablehlo.compare  GT, %586, %588,  FLOAT : (tensor<256x56x56x256xf16>, tensor<256x56x56x256xf16>) -> tensor<256x56x56x256xi1>
    %590 = stablehlo.broadcast_in_dim %cst_18, dims = [] : (tensor<f16>) -> tensor<256x56x56x256xf16>
    %591 = stablehlo.convert %arg85 : (tensor<1x1x256x64xf32>) -> tensor<1x1x256x64xf16>
    %592 = stablehlo.convolution(%587, %591) dim_numbers = [b, 0, 1, f]x[0, 1, i, o]->[b, 0, 1, f], window = {stride = [1, 1], pad = [[0, 0], [0, 0]], lhs_dilate = [1, 1], rhs_dilate = [1, 1], reverse = [false, false]} {batch_group_count = 1 : i64, feature_group_count = 1 : i64, precision_config = [#stablehlo<precision DEFAULT>, #stablehlo<precision DEFAULT>]} : (tensor<256x56x56x256xf16>, tensor<1x1x256x64xf16>) -> tensor<256x56x56x64xf16>
    %593 = stablehlo.convert %592 : (tensor<256x56x56x64xf16>) -> tensor<256x56x56x64xf32>
    %594 = stablehlo.multiply %593, %593 : tensor<256x56x56x64xf32>
    %595 = stablehlo.broadcast_in_dim %cst_7, dims = [] : (tensor<f32>) -> tensor<256x56x56x64xf32>
    %596 = stablehlo.multiply %595, %593 : tensor<256x56x56x64xf32>
    %cst_35 = stablehlo.constant dense<0.000000e+00> : tensor<f32>
    %597 = stablehlo.reduce(%593 init: %cst_35) applies stablehlo.add across dimensions = [0, 1, 2] : (tensor<256x56x56x64xf32>, tensor<f32>) -> tensor<64xf32>
    %598 = stablehlo.broadcast_in_dim %cst_21, dims = [] : (tensor<f32>) -> tensor<64xf32>
    %599 = stablehlo.divide %597, %598 : tensor<64xf32>
    %cst_36 = stablehlo.constant dense<0.000000e+00> : tensor<f32>
    %600 = stablehlo.reduce(%594 init: %cst_36) applies stablehlo.add across dimensions = [0, 1, 2] : (tensor<256x56x56x64xf32>, tensor<f32>) -> tensor<64xf32>
    %601 = stablehlo.broadcast_in_dim %cst_21, dims = [] : (tensor<f32>) -> tensor<64xf32>
    %602 = stablehlo.divide %600, %601 : tensor<64xf32>
    %603 = stablehlo.broadcast_in_dim %599, dims = [1] : (tensor<64xf32>) -> tensor<1x64xf32>
    %604 = stablehlo.broadcast_in_dim %602, dims = [1] : (tensor<64xf32>) -> tensor<1x64xf32>
    %605 = stablehlo.concatenate %603, %604, dim = 0 : (tensor<1x64xf32>, tensor<1x64xf32>) -> tensor<2x64xf32>
    %606 = "stablehlo.all_reduce"(%605) <{replica_groups = dense<[[0, 1, 2, 3]]> : tensor<1x4xi64>}> ({
    ^bb0(%arg432: tensor<f32>, %arg433: tensor<f32>):
      %9450 = stablehlo.add %arg432, %arg433 : tensor<f32>
      stablehlo.return %9450 : tensor<f32>
    }) : (tensor<2x64xf32>) -> tensor<2x64xf32>
    %607 = stablehlo.broadcast_in_dim %cst_11, dims = [] : (tensor<f32>) -> tensor<2x64xf32>
    %608 = stablehlo.divide %606, %607 : tensor<2x64xf32>
    %609 = stablehlo.slice %608 [0:1, 0:64] : (tensor<2x64xf32>) -> tensor<1x64xf32>
    %610 = stablehlo.reshape %609 : (tensor<1x64xf32>) -> tensor<64xf32>
    %611 = stablehlo.slice %608 [1:2, 0:64] : (tensor<2x64xf32>) -> tensor<1x64xf32>
    %612 = stablehlo.reshape %611 : (tensor<1x64xf32>) -> tensor<64xf32>
    %613 = stablehlo.multiply %610, %610 : tensor<64xf32>
    %614 = stablehlo.broadcast_in_dim %cst_7, dims = [] : (tensor<f32>) -> tensor<64xf32>
    %615 = stablehlo.multiply %614, %610 : tensor<64xf32>
    %616 = stablehlo.subtract %612, %613 : tensor<64xf32>
    %617 = stablehlo.broadcast_in_dim %cst_12, dims = [] : (tensor<f32>) -> tensor<64xf32>
    %618 = stablehlo.maximum %617, %616 : tensor<64xf32>
    %619 = stablehlo.compare  EQ, %616, %618,  FLOAT : (tensor<64xf32>, tensor<64xf32>) -> tensor<64xi1>
    %620 = stablehlo.broadcast_in_dim %cst_13, dims = [] : (tensor<f32>) -> tensor<64xf32>
    %621 = stablehlo.broadcast_in_dim %cst_12, dims = [] : (tensor<f32>) -> tensor<64xf32>
    %622 = stablehlo.select %619, %620, %621 : tensor<64xi1>, tensor<64xf32>
    %623 = stablehlo.broadcast_in_dim %cst_12, dims = [] : (tensor<f32>) -> tensor<64xf32>
    %624 = stablehlo.compare  EQ, %623, %618,  FLOAT : (tensor<64xf32>, tensor<64xf32>) -> tensor<64xi1>
    %625 = stablehlo.broadcast_in_dim %cst_7, dims = [] : (tensor<f32>) -> tensor<64xf32>
    %626 = stablehlo.broadcast_in_dim %cst_13, dims = [] : (tensor<f32>) -> tensor<64xf32>
    %627 = stablehlo.select %624, %625, %626 : tensor<64xi1>, tensor<64xf32>
    %628 = stablehlo.divide %622, %627 : tensor<64xf32>
    %629 = stablehlo.broadcast_in_dim %cst_14, dims = [] : (tensor<f32>) -> tensor<64xf32>
    %630 = stablehlo.multiply %629, %arg376 : tensor<64xf32>
    %631 = stablehlo.broadcast_in_dim %cst_15, dims = [] : (tensor<f32>) -> tensor<64xf32>
    %632 = stablehlo.multiply %631, %610 : tensor<64xf32>
    %633 = stablehlo.add %630, %632 : tensor<64xf32>
    %634 = stablehlo.broadcast_in_dim %cst_14, dims = [] : (tensor<f32>) -> tensor<64xf32>
    %635 = stablehlo.multiply %634, %arg377 : tensor<64xf32>
    %636 = stablehlo.broadcast_in_dim %cst_15, dims = [] : (tensor<f32>) -> tensor<64xf32>
    %637 = stablehlo.multiply %636, %618 : tensor<64xf32>
    %638 = stablehlo.add %635, %637 : tensor<64xf32>
    %639 = stablehlo.broadcast_in_dim %610, dims = [3] : (tensor<64xf32>) -> tensor<1x1x1x64xf32>
    %640 = stablehlo.broadcast_in_dim %618, dims = [3] : (tensor<64xf32>) -> tensor<1x1x1x64xf32>
    %641 = stablehlo.convert %592 : (tensor<256x56x56x64xf16>) -> tensor<256x56x56x64xf32>
    %642 = stablehlo.broadcast_in_dim %639, dims = [0, 1, 2, 3] : (tensor<1x1x1x64xf32>) -> tensor<256x56x56x64xf32>
    %643 = stablehlo.subtract %641, %642 : tensor<256x56x56x64xf32>
    %644 = stablehlo.broadcast_in_dim %cst_16, dims = [] : (tensor<f32>) -> tensor<1x1x1x64xf32>
    %645 = stablehlo.add %640, %644 : tensor<1x1x1x64xf32>
    %646 = stablehlo.rsqrt %645 : tensor<1x1x1x64xf32>
    %647 = stablehlo.divide %646, %645 : tensor<1x1x1x64xf32>
    %648 = stablehlo.broadcast_in_dim %cst_17, dims = [] : (tensor<f32>) -> tensor<1x1x1x64xf32>
    %649 = stablehlo.multiply %648, %647 : tensor<1x1x1x64xf32>
    %650 = stablehlo.reshape %arg80 : (tensor<64xf32>) -> tensor<1x1x1x64xf32>
    %651 = stablehlo.multiply %646, %650 : tensor<1x1x1x64xf32>
    %652 = stablehlo.broadcast_in_dim %651, dims = [0, 1, 2, 3] : (tensor<1x1x1x64xf32>) -> tensor<256x56x56x64xf32>
    %653 = stablehlo.multiply %643, %652 : tensor<256x56x56x64xf32>
    %654 = stablehlo.reshape %arg79 : (tensor<64xf32>) -> tensor<1x1x1x64xf32>
    %655 = stablehlo.broadcast_in_dim %654, dims = [0, 1, 2, 3] : (tensor<1x1x1x64xf32>) -> tensor<256x56x56x64xf32>
    %656 = stablehlo.add %653, %655 : tensor<256x56x56x64xf32>
    %657 = stablehlo.convert %656 : (tensor<256x56x56x64xf32>) -> tensor<256x56x56x64xf16>
    %658 = call @relu_0(%657) : (tensor<256x56x56x64xf16>) -> tensor<256x56x56x64xf16>
    %659 = stablehlo.broadcast_in_dim %cst_18, dims = [] : (tensor<f16>) -> tensor<256x56x56x64xf16>
    %660 = stablehlo.compare  GT, %657, %659,  FLOAT : (tensor<256x56x56x64xf16>, tensor<256x56x56x64xf16>) -> tensor<256x56x56x64xi1>
    %661 = stablehlo.broadcast_in_dim %cst_18, dims = [] : (tensor<f16>) -> tensor<256x56x56x64xf16>
    %662 = stablehlo.convert %arg86 : (tensor<3x3x64x64xf32>) -> tensor<3x3x64x64xf16>
    %663 = stablehlo.convolution(%658, %662) dim_numbers = [b, 0, 1, f]x[0, 1, i, o]->[b, 0, 1, f], window = {stride = [1, 1], pad = [[1, 1], [1, 1]], lhs_dilate = [1, 1], rhs_dilate = [1, 1], reverse = [false, false]} {batch_group_count = 1 : i64, feature_group_count = 1 : i64, precision_config = [#stablehlo<precision DEFAULT>, #stablehlo<precision DEFAULT>]} : (tensor<256x56x56x64xf16>, tensor<3x3x64x64xf16>) -> tensor<256x56x56x64xf16>
    %664 = stablehlo.convert %663 : (tensor<256x56x56x64xf16>) -> tensor<256x56x56x64xf32>
    %665 = stablehlo.multiply %664, %664 : tensor<256x56x56x64xf32>
    %666 = stablehlo.broadcast_in_dim %cst_7, dims = [] : (tensor<f32>) -> tensor<256x56x56x64xf32>
    %667 = stablehlo.multiply %666, %664 : tensor<256x56x56x64xf32>
    %cst_37 = stablehlo.constant dense<0.000000e+00> : tensor<f32>
    %668 = stablehlo.reduce(%664 init: %cst_37) applies stablehlo.add across dimensions = [0, 1, 2] : (tensor<256x56x56x64xf32>, tensor<f32>) -> tensor<64xf32>
    %669 = stablehlo.broadcast_in_dim %cst_21, dims = [] : (tensor<f32>) -> tensor<64xf32>
    %670 = stablehlo.divide %668, %669 : tensor<64xf32>
    %cst_38 = stablehlo.constant dense<0.000000e+00> : tensor<f32>
    %671 = stablehlo.reduce(%665 init: %cst_38) applies stablehlo.add across dimensions = [0, 1, 2] : (tensor<256x56x56x64xf32>, tensor<f32>) -> tensor<64xf32>
    %672 = stablehlo.broadcast_in_dim %cst_21, dims = [] : (tensor<f32>) -> tensor<64xf32>
    %673 = stablehlo.divide %671, %672 : tensor<64xf32>
    %674 = stablehlo.broadcast_in_dim %670, dims = [1] : (tensor<64xf32>) -> tensor<1x64xf32>
    %675 = stablehlo.broadcast_in_dim %673, dims = [1] : (tensor<64xf32>) -> tensor<1x64xf32>
    %676 = stablehlo.concatenate %674, %675, dim = 0 : (tensor<1x64xf32>, tensor<1x64xf32>) -> tensor<2x64xf32>
    %677 = "stablehlo.all_reduce"(%676) <{replica_groups = dense<[[0, 1, 2, 3]]> : tensor<1x4xi64>}> ({
    ^bb0(%arg432: tensor<f32>, %arg433: tensor<f32>):
      %9450 = stablehlo.add %arg432, %arg433 : tensor<f32>
      stablehlo.return %9450 : tensor<f32>
    }) : (tensor<2x64xf32>) -> tensor<2x64xf32>
    %678 = stablehlo.broadcast_in_dim %cst_11, dims = [] : (tensor<f32>) -> tensor<2x64xf32>
    %679 = stablehlo.divide %677, %678 : tensor<2x64xf32>
    %680 = stablehlo.slice %679 [0:1, 0:64] : (tensor<2x64xf32>) -> tensor<1x64xf32>
    %681 = stablehlo.reshape %680 : (tensor<1x64xf32>) -> tensor<64xf32>
    %682 = stablehlo.slice %679 [1:2, 0:64] : (tensor<2x64xf32>) -> tensor<1x64xf32>
    %683 = stablehlo.reshape %682 : (tensor<1x64xf32>) -> tensor<64xf32>
    %684 = stablehlo.multiply %681, %681 : tensor<64xf32>
    %685 = stablehlo.broadcast_in_dim %cst_7, dims = [] : (tensor<f32>) -> tensor<64xf32>
    %686 = stablehlo.multiply %685, %681 : tensor<64xf32>
    %687 = stablehlo.subtract %683, %684 : tensor<64xf32>
    %688 = stablehlo.broadcast_in_dim %cst_12, dims = [] : (tensor<f32>) -> tensor<64xf32>
    %689 = stablehlo.maximum %688, %687 : tensor<64xf32>
    %690 = stablehlo.compare  EQ, %687, %689,  FLOAT : (tensor<64xf32>, tensor<64xf32>) -> tensor<64xi1>
    %691 = stablehlo.broadcast_in_dim %cst_13, dims = [] : (tensor<f32>) -> tensor<64xf32>
    %692 = stablehlo.broadcast_in_dim %cst_12, dims = [] : (tensor<f32>) -> tensor<64xf32>
    %693 = stablehlo.select %690, %691, %692 : tensor<64xi1>, tensor<64xf32>
    %694 = stablehlo.broadcast_in_dim %cst_12, dims = [] : (tensor<f32>) -> tensor<64xf32>
    %695 = stablehlo.compare  EQ, %694, %689,  FLOAT : (tensor<64xf32>, tensor<64xf32>) -> tensor<64xi1>
    %696 = stablehlo.broadcast_in_dim %cst_7, dims = [] : (tensor<f32>) -> tensor<64xf32>
    %697 = stablehlo.broadcast_in_dim %cst_13, dims = [] : (tensor<f32>) -> tensor<64xf32>
    %698 = stablehlo.select %695, %696, %697 : tensor<64xi1>, tensor<64xf32>
    %699 = stablehlo.divide %693, %698 : tensor<64xf32>
    %700 = stablehlo.broadcast_in_dim %cst_14, dims = [] : (tensor<f32>) -> tensor<64xf32>
    %701 = stablehlo.multiply %700, %arg378 : tensor<64xf32>
    %702 = stablehlo.broadcast_in_dim %cst_15, dims = [] : (tensor<f32>) -> tensor<64xf32>
    %703 = stablehlo.multiply %702, %681 : tensor<64xf32>
    %704 = stablehlo.add %701, %703 : tensor<64xf32>
    %705 = stablehlo.broadcast_in_dim %cst_14, dims = [] : (tensor<f32>) -> tensor<64xf32>
    %706 = stablehlo.multiply %705, %arg379 : tensor<64xf32>
    %707 = stablehlo.broadcast_in_dim %cst_15, dims = [] : (tensor<f32>) -> tensor<64xf32>
    %708 = stablehlo.multiply %707, %689 : tensor<64xf32>
    %709 = stablehlo.add %706, %708 : tensor<64xf32>
    %710 = stablehlo.broadcast_in_dim %681, dims = [3] : (tensor<64xf32>) -> tensor<1x1x1x64xf32>
    %711 = stablehlo.broadcast_in_dim %689, dims = [3] : (tensor<64xf32>) -> tensor<1x1x1x64xf32>
    %712 = stablehlo.convert %663 : (tensor<256x56x56x64xf16>) -> tensor<256x56x56x64xf32>
    %713 = stablehlo.broadcast_in_dim %710, dims = [0, 1, 2, 3] : (tensor<1x1x1x64xf32>) -> tensor<256x56x56x64xf32>
    %714 = stablehlo.subtract %712, %713 : tensor<256x56x56x64xf32>
    %715 = stablehlo.broadcast_in_dim %cst_16, dims = [] : (tensor<f32>) -> tensor<1x1x1x64xf32>
    %716 = stablehlo.add %711, %715 : tensor<1x1x1x64xf32>
    %717 = stablehlo.rsqrt %716 : tensor<1x1x1x64xf32>
    %718 = stablehlo.divide %717, %716 : tensor<1x1x1x64xf32>
    %719 = stablehlo.broadcast_in_dim %cst_17, dims = [] : (tensor<f32>) -> tensor<1x1x1x64xf32>
    %720 = stablehlo.multiply %719, %718 : tensor<1x1x1x64xf32>
    %721 = stablehlo.reshape %arg82 : (tensor<64xf32>) -> tensor<1x1x1x64xf32>
    %722 = stablehlo.multiply %717, %721 : tensor<1x1x1x64xf32>
    %723 = stablehlo.broadcast_in_dim %722, dims = [0, 1, 2, 3] : (tensor<1x1x1x64xf32>) -> tensor<256x56x56x64xf32>
    %724 = stablehlo.multiply %714, %723 : tensor<256x56x56x64xf32>
    %725 = stablehlo.reshape %arg81 : (tensor<64xf32>) -> tensor<1x1x1x64xf32>
    %726 = stablehlo.broadcast_in_dim %725, dims = [0, 1, 2, 3] : (tensor<1x1x1x64xf32>) -> tensor<256x56x56x64xf32>
    %727 = stablehlo.add %724, %726 : tensor<256x56x56x64xf32>
    %728 = stablehlo.convert %727 : (tensor<256x56x56x64xf32>) -> tensor<256x56x56x64xf16>
    %729 = call @relu_0(%728) : (tensor<256x56x56x64xf16>) -> tensor<256x56x56x64xf16>
    %730 = stablehlo.broadcast_in_dim %cst_18, dims = [] : (tensor<f16>) -> tensor<256x56x56x64xf16>
    %731 = stablehlo.compare  GT, %728, %730,  FLOAT : (tensor<256x56x56x64xf16>, tensor<256x56x56x64xf16>) -> tensor<256x56x56x64xi1>
    %732 = stablehlo.broadcast_in_dim %cst_18, dims = [] : (tensor<f16>) -> tensor<256x56x56x64xf16>
    %733 = stablehlo.convert %arg87 : (tensor<1x1x64x256xf32>) -> tensor<1x1x64x256xf16>
    %734 = stablehlo.convolution(%729, %733) dim_numbers = [b, 0, 1, f]x[0, 1, i, o]->[b, 0, 1, f], window = {stride = [1, 1], pad = [[0, 0], [0, 0]], lhs_dilate = [1, 1], rhs_dilate = [1, 1], reverse = [false, false]} {batch_group_count = 1 : i64, feature_group_count = 1 : i64, precision_config = [#stablehlo<precision DEFAULT>, #stablehlo<precision DEFAULT>]} : (tensor<256x56x56x64xf16>, tensor<1x1x64x256xf16>) -> tensor<256x56x56x256xf16>
    %735 = stablehlo.convert %734 : (tensor<256x56x56x256xf16>) -> tensor<256x56x56x256xf32>
    %736 = stablehlo.multiply %735, %735 : tensor<256x56x56x256xf32>
    %737 = stablehlo.broadcast_in_dim %cst_7, dims = [] : (tensor<f32>) -> tensor<256x56x56x256xf32>
    %738 = stablehlo.multiply %737, %735 : tensor<256x56x56x256xf32>
    %cst_39 = stablehlo.constant dense<0.000000e+00> : tensor<f32>
    %739 = stablehlo.reduce(%735 init: %cst_39) applies stablehlo.add across dimensions = [0, 1, 2] : (tensor<256x56x56x256xf32>, tensor<f32>) -> tensor<256xf32>
    %740 = stablehlo.broadcast_in_dim %cst_21, dims = [] : (tensor<f32>) -> tensor<256xf32>
    %741 = stablehlo.divide %739, %740 : tensor<256xf32>
    %cst_40 = stablehlo.constant dense<0.000000e+00> : tensor<f32>
    %742 = stablehlo.reduce(%736 init: %cst_40) applies stablehlo.add across dimensions = [0, 1, 2] : (tensor<256x56x56x256xf32>, tensor<f32>) -> tensor<256xf32>
    %743 = stablehlo.broadcast_in_dim %cst_21, dims = [] : (tensor<f32>) -> tensor<256xf32>
    %744 = stablehlo.divide %742, %743 : tensor<256xf32>
    %745 = stablehlo.broadcast_in_dim %741, dims = [1] : (tensor<256xf32>) -> tensor<1x256xf32>
    %746 = stablehlo.broadcast_in_dim %744, dims = [1] : (tensor<256xf32>) -> tensor<1x256xf32>
    %747 = stablehlo.concatenate %745, %746, dim = 0 : (tensor<1x256xf32>, tensor<1x256xf32>) -> tensor<2x256xf32>
    %748 = "stablehlo.all_reduce"(%747) <{replica_groups = dense<[[0, 1, 2, 3]]> : tensor<1x4xi64>}> ({
    ^bb0(%arg432: tensor<f32>, %arg433: tensor<f32>):
      %9450 = stablehlo.add %arg432, %arg433 : tensor<f32>
      stablehlo.return %9450 : tensor<f32>
    }) : (tensor<2x256xf32>) -> tensor<2x256xf32>
    %749 = stablehlo.broadcast_in_dim %cst_11, dims = [] : (tensor<f32>) -> tensor<2x256xf32>
    %750 = stablehlo.divide %748, %749 : tensor<2x256xf32>
    %751 = stablehlo.slice %750 [0:1, 0:256] : (tensor<2x256xf32>) -> tensor<1x256xf32>
    %752 = stablehlo.reshape %751 : (tensor<1x256xf32>) -> tensor<256xf32>
    %753 = stablehlo.slice %750 [1:2, 0:256] : (tensor<2x256xf32>) -> tensor<1x256xf32>
    %754 = stablehlo.reshape %753 : (tensor<1x256xf32>) -> tensor<256xf32>
    %755 = stablehlo.multiply %752, %752 : tensor<256xf32>
    %756 = stablehlo.broadcast_in_dim %cst_7, dims = [] : (tensor<f32>) -> tensor<256xf32>
    %757 = stablehlo.multiply %756, %752 : tensor<256xf32>
    %758 = stablehlo.subtract %754, %755 : tensor<256xf32>
    %759 = stablehlo.broadcast_in_dim %cst_12, dims = [] : (tensor<f32>) -> tensor<256xf32>
    %760 = stablehlo.maximum %759, %758 : tensor<256xf32>
    %761 = stablehlo.compare  EQ, %758, %760,  FLOAT : (tensor<256xf32>, tensor<256xf32>) -> tensor<256xi1>
…
    %9059 = stablehlo.multiply %9058, %8554 : tensor<1x1x64x256xf32>
    %9060 = stablehlo.convert %8798 : tensor<f32>
    %9061 = stablehlo.broadcast_in_dim %9060, dims = [] : (tensor<f32>) -> tensor<128xf32>
    %9062 = stablehlo.multiply %9061, %8557 : tensor<128xf32>
    %9063 = stablehlo.convert %8798 : tensor<f32>
    %9064 = stablehlo.broadcast_in_dim %9063, dims = [] : (tensor<f32>) -> tensor<128xf32>
    %9065 = stablehlo.multiply %9064, %8560 : tensor<128xf32>
    %9066 = stablehlo.convert %8798 : tensor<f32>
    %9067 = stablehlo.broadcast_in_dim %9066, dims = [] : (tensor<f32>) -> tensor<128xf32>
    %9068 = stablehlo.multiply %9067, %8563 : tensor<128xf32>
    %9069 = stablehlo.convert %8798 : tensor<f32>
    %9070 = stablehlo.broadcast_in_dim %9069, dims = [] : (tensor<f32>) -> tensor<128xf32>
    %9071 = stablehlo.multiply %9070, %8566 : tensor<128xf32>
    %9072 = stablehlo.convert %8798 : tensor<f32>
    %9073 = stablehlo.broadcast_in_dim %9072, dims = [] : (tensor<f32>) -> tensor<512xf32>
    %9074 = stablehlo.multiply %9073, %8569 : tensor<512xf32>
    %9075 = stablehlo.convert %8798 : tensor<f32>
    %9076 = stablehlo.broadcast_in_dim %9075, dims = [] : (tensor<f32>) -> tensor<512xf32>
    %9077 = stablehlo.multiply %9076, %8572 : tensor<512xf32>
    %9078 = stablehlo.convert %8798 : tensor<f32>
    %9079 = stablehlo.broadcast_in_dim %9078, dims = [] : (tensor<f32>) -> tensor<1x1x256x128xf32>
    %9080 = stablehlo.multiply %9079, %8575 : tensor<1x1x256x128xf32>
    %9081 = stablehlo.convert %8798 : tensor<f32>
    %9082 = stablehlo.broadcast_in_dim %9081, dims = [] : (tensor<f32>) -> tensor<3x3x128x128xf32>
    %9083 = stablehlo.multiply %9082, %8578 : tensor<3x3x128x128xf32>
    %9084 = stablehlo.convert %8798 : tensor<f32>
    %9085 = stablehlo.broadcast_in_dim %9084, dims = [] : (tensor<f32>) -> tensor<1x1x128x512xf32>
    %9086 = stablehlo.multiply %9085, %8581 : tensor<1x1x128x512xf32>
    %9087 = stablehlo.convert %8798 : tensor<f32>
    %9088 = stablehlo.broadcast_in_dim %9087, dims = [] : (tensor<f32>) -> tensor<1x1x256x512xf32>
    %9089 = stablehlo.multiply %9088, %8584 : tensor<1x1x256x512xf32>
    %9090 = stablehlo.convert %8798 : tensor<f32>
    %9091 = stablehlo.broadcast_in_dim %9090, dims = [] : (tensor<f32>) -> tensor<512xf32>
    %9092 = stablehlo.multiply %9091, %8587 : tensor<512xf32>
    %9093 = stablehlo.convert %8798 : tensor<f32>
    %9094 = stablehlo.broadcast_in_dim %9093, dims = [] : (tensor<f32>) -> tensor<512xf32>
    %9095 = stablehlo.multiply %9094, %8590 : tensor<512xf32>
    %9096 = stablehlo.convert %8798 : tensor<f32>
    %9097 = stablehlo.broadcast_in_dim %9096, dims = [] : (tensor<f32>) -> tensor<128xf32>
    %9098 = stablehlo.multiply %9097, %8593 : tensor<128xf32>
    %9099 = stablehlo.convert %8798 : tensor<f32>
    %9100 = stablehlo.broadcast_in_dim %9099, dims = [] : (tensor<f32>) -> tensor<128xf32>
    %9101 = stablehlo.multiply %9100, %8596 : tensor<128xf32>
    %9102 = stablehlo.convert %8798 : tensor<f32>
    %9103 = stablehlo.broadcast_in_dim %9102, dims = [] : (tensor<f32>) -> tensor<128xf32>
    %9104 = stablehlo.multiply %9103, %8599 : tensor<128xf32>
    %9105 = stablehlo.convert %8798 : tensor<f32>
    %9106 = stablehlo.broadcast_in_dim %9105, dims = [] : (tensor<f32>) -> tensor<128xf32>
    %9107 = stablehlo.multiply %9106, %8602 : tensor<128xf32>
    %9108 = stablehlo.convert %8798 : tensor<f32>
    %9109 = stablehlo.broadcast_in_dim %9108, dims = [] : (tensor<f32>) -> tensor<512xf32>
    %9110 = stablehlo.multiply %9109, %8605 : tensor<512xf32>
    %9111 = stablehlo.convert %8798 : tensor<f32>
    %9112 = stablehlo.broadcast_in_dim %9111, dims = [] : (tensor<f32>) -> tensor<512xf32>
    %9113 = stablehlo.multiply %9112, %8608 : tensor<512xf32>
    %9114 = stablehlo.convert %8798 : tensor<f32>
    %9115 = stablehlo.broadcast_in_dim %9114, dims = [] : (tensor<f32>) -> tensor<1x1x512x128xf32>
    %9116 = stablehlo.multiply %9115, %8611 : tensor<1x1x512x128xf32>
    %9117 = stablehlo.convert %8798 : tensor<f32>
    %9118 = stablehlo.broadcast_in_dim %9117, dims = [] : (tensor<f32>) -> tensor<3x3x128x128xf32>
    %9119 = stablehlo.multiply %9118, %8614 : tensor<3x3x128x128xf32>
    %9120 = stablehlo.convert %8798 : tensor<f32>
    %9121 = stablehlo.broadcast_in_dim %9120, dims = [] : (tensor<f32>) -> tensor<1x1x128x512xf32>
    %9122 = stablehlo.multiply %9121, %8617 : tensor<1x1x128x512xf32>
    %9123 = stablehlo.convert %8798 : tensor<f32>
    %9124 = stablehlo.broadcast_in_dim %9123, dims = [] : (tensor<f32>) -> tensor<128xf32>
    %9125 = stablehlo.multiply %9124, %8620 : tensor<128xf32>
    %9126 = stablehlo.convert %8798 : tensor<f32>
    %9127 = stablehlo.broadcast_in_dim %9126, dims = [] : (tensor<f32>) -> tensor<128xf32>
    %9128 = stablehlo.multiply %9127, %8623 : tensor<128xf32>
    %9129 = stablehlo.convert %8798 : tensor<f32>
    %9130 = stablehlo.broadcast_in_dim %9129, dims = [] : (tensor<f32>) -> tensor<128xf32>
    %9131 = stablehlo.multiply %9130, %8626 : tensor<128xf32>
    %9132 = stablehlo.convert %8798 : tensor<f32>
    %9133 = stablehlo.broadcast_in_dim %9132, dims = [] : (tensor<f32>) -> tensor<128xf32>
    %9134 = stablehlo.multiply %9133, %8629 : tensor<128xf32>
    %9135 = stablehlo.convert %8798 : tensor<f32>
    %9136 = stablehlo.broadcast_in_dim %9135, dims = [] : (tensor<f32>) -> tensor<512xf32>
    %9137 = stablehlo.multiply %9136, %8632 : tensor<512xf32>
    %9138 = stablehlo.convert %8798 : tensor<f32>
    %9139 = stablehlo.broadcast_in_dim %9138, dims = [] : (tensor<f32>) -> tensor<512xf32>
    %9140 = stablehlo.multiply %9139, %8635 : tensor<512xf32>
    %9141 = stablehlo.convert %8798 : tensor<f32>
    %9142 = stablehlo.broadcast_in_dim %9141, dims = [] : (tensor<f32>) -> tensor<1x1x512x128xf32>
    %9143 = stablehlo.multiply %9142, %8638 : tensor<1x1x512x128xf32>
    %9144 = stablehlo.convert %8798 : tensor<f32>
    %9145 = stablehlo.broadcast_in_dim %9144, dims = [] : (tensor<f32>) -> tensor<3x3x128x128xf32>
    %9146 = stablehlo.multiply %9145, %8641 : tensor<3x3x128x128xf32>
    %9147 = stablehlo.convert %8798 : tensor<f32>
    %9148 = stablehlo.broadcast_in_dim %9147, dims = [] : (tensor<f32>) -> tensor<1x1x128x512xf32>
    %9149 = stablehlo.multiply %9148, %8644 : tensor<1x1x128x512xf32>
    %9150 = stablehlo.convert %8798 : tensor<f32>
    %9151 = stablehlo.broadcast_in_dim %9150, dims = [] : (tensor<f32>) -> tensor<128xf32>
    %9152 = stablehlo.multiply %9151, %8647 : tensor<128xf32>
    %9153 = stablehlo.convert %8798 : tensor<f32>
    %9154 = stablehlo.broadcast_in_dim %9153, dims = [] : (tensor<f32>) -> tensor<128xf32>
    %9155 = stablehlo.multiply %9154, %8650 : tensor<128xf32>
    %9156 = stablehlo.convert %8798 : tensor<f32>
    %9157 = stablehlo.broadcast_in_dim %9156, dims = [] : (tensor<f32>) -> tensor<128xf32>
    %9158 = stablehlo.multiply %9157, %8653 : tensor<128xf32>
    %9159 = stablehlo.convert %8798 : tensor<f32>
    %9160 = stablehlo.broadcast_in_dim %9159, dims = [] : (tensor<f32>) -> tensor<128xf32>
    %9161 = stablehlo.multiply %9160, %8656 : tensor<128xf32>
    %9162 = stablehlo.convert %8798 : tensor<f32>
    %9163 = stablehlo.broadcast_in_dim %9162, dims = [] : (tensor<f32>) -> tensor<512xf32>
    %9164 = stablehlo.multiply %9163, %8659 : tensor<512xf32>
    %9165 = stablehlo.convert %8798 : tensor<f32>
    %9166 = stablehlo.broadcast_in_dim %9165, dims = [] : (tensor<f32>) -> tensor<512xf32>
    %9167 = stablehlo.multiply %9166, %8662 : tensor<512xf32>
    %9168 = stablehlo.convert %8798 : tensor<f32>
    %9169 = stablehlo.broadcast_in_dim %9168, dims = [] : (tensor<f32>) -> tensor<1x1x512x128xf32>
    %9170 = stablehlo.multiply %9169, %8665 : tensor<1x1x512x128xf32>
    %9171 = stablehlo.convert %8798 : tensor<f32>
    %9172 = stablehlo.broadcast_in_dim %9171, dims = [] : (tensor<f32>) -> tensor<3x3x128x128xf32>
    %9173 = stablehlo.multiply %9172, %8668 : tensor<3x3x128x128xf32>
    %9174 = stablehlo.convert %8798 : tensor<f32>
    %9175 = stablehlo.broadcast_in_dim %9174, dims = [] : (tensor<f32>) -> tensor<1x1x128x512xf32>
    %9176 = stablehlo.multiply %9175, %8671 : tensor<1x1x128x512xf32>
    %9177 = stablehlo.convert %8798 : tensor<f32>
    %9178 = stablehlo.broadcast_in_dim %9177, dims = [] : (tensor<f32>) -> tensor<256xf32>
    %9179 = stablehlo.multiply %9178, %8674 : tensor<256xf32>
    %9180 = stablehlo.convert %8798 : tensor<f32>
    %9181 = stablehlo.broadcast_in_dim %9180, dims = [] : (tensor<f32>) -> tensor<256xf32>
    %9182 = stablehlo.multiply %9181, %8677 : tensor<256xf32>
    %9183 = stablehlo.convert %8798 : tensor<f32>
    %9184 = stablehlo.broadcast_in_dim %9183, dims = [] : (tensor<f32>) -> tensor<256xf32>
    %9185 = stablehlo.multiply %9184, %8680 : tensor<256xf32>
    %9186 = stablehlo.convert %8798 : tensor<f32>
    %9187 = stablehlo.broadcast_in_dim %9186, dims = [] : (tensor<f32>) -> tensor<256xf32>
    %9188 = stablehlo.multiply %9187, %8683 : tensor<256xf32>
    %9189 = stablehlo.convert %8798 : tensor<f32>
    %9190 = stablehlo.broadcast_in_dim %9189, dims = [] : (tensor<f32>) -> tensor<1024xf32>
    %9191 = stablehlo.multiply %9190, %8686 : tensor<1024xf32>
    %9192 = stablehlo.convert %8798 : tensor<f32>
    %9193 = stablehlo.broadcast_in_dim %9192, dims = [] : (tensor<f32>) -> tensor<1024xf32>
    %9194 = stablehlo.multiply %9193, %8689 : tensor<1024xf32>
    %9195 = stablehlo.convert %8798 : tensor<f32>
    %9196 = stablehlo.broadcast_in_dim %9195, dims = [] : (tensor<f32>) -> tensor<1x1x512x256xf32>
    %9197 = stablehlo.multiply %9196, %8692 : tensor<1x1x512x256xf32>
    %9198 = stablehlo.convert %8798 : tensor<f32>
    %9199 = stablehlo.broadcast_in_dim %9198, dims = [] : (tensor<f32>) -> tensor<3x3x256x256xf32>
    %9200 = stablehlo.multiply %9199, %8695 : tensor<3x3x256x256xf32>
    %9201 = stablehlo.convert %8798 : tensor<f32>
    %9202 = stablehlo.broadcast_in_dim %9201, dims = [] : (tensor<f32>) -> tensor<1x1x256x1024xf32>
    %9203 = stablehlo.multiply %9202, %8698 : tensor<1x1x256x1024xf32>
    %9204 = stablehlo.convert %8798 : tensor<f32>
    %9205 = stablehlo.broadcast_in_dim %9204, dims = [] : (tensor<f32>) -> tensor<1x1x512x1024xf32>
    %9206 = stablehlo.multiply %9205, %8701 : tensor<1x1x512x1024xf32>
    %9207 = stablehlo.convert %8798 : tensor<f32>
    %9208 = stablehlo.broadcast_in_dim %9207, dims = [] : (tensor<f32>) -> tensor<1024xf32>
    %9209 = stablehlo.multiply %9208, %8704 : tensor<1024xf32>
    %9210 = stablehlo.convert %8798 : tensor<f32>
    %9211 = stablehlo.broadcast_in_dim %9210, dims = [] : (tensor<f32>) -> tensor<1024xf32>
    %9212 = stablehlo.multiply %9211, %8707 : tensor<1024xf32>
    %9213 = stablehlo.convert %8798 : tensor<f32>
    %9214 = stablehlo.broadcast_in_dim %9213, dims = [] : (tensor<f32>) -> tensor<256xf32>
    %9215 = stablehlo.multiply %9214, %8710 : tensor<256xf32>
    %9216 = stablehlo.convert %8798 : tensor<f32>
    %9217 = stablehlo.broadcast_in_dim %9216, dims = [] : (tensor<f32>) -> tensor<256xf32>
    %9218 = stablehlo.multiply %9217, %8713 : tensor<256xf32>
    %9219 = stablehlo.convert %8798 : tensor<f32>
    %9220 = stablehlo.broadcast_in_dim %9219, dims = [] : (tensor<f32>) -> tensor<256xf32>
    %9221 = stablehlo.multiply %9220, %8716 : tensor<256xf32>
    %9222 = stablehlo.convert %8798 : tensor<f32>
    %9223 = stablehlo.broadcast_in_dim %9222, dims = [] : (tensor<f32>) -> tensor<256xf32>
    %9224 = stablehlo.multiply %9223, %8719 : tensor<256xf32>
    %9225 = stablehlo.convert %8798 : tensor<f32>
    %9226 = stablehlo.broadcast_in_dim %9225, dims = [] : (tensor<f32>) -> tensor<1024xf32>
    %9227 = stablehlo.multiply %9226, %8722 : tensor<1024xf32>
    %9228 = stablehlo.convert %8798 : tensor<f32>
    %9229 = stablehlo.broadcast_in_dim %9228, dims = [] : (tensor<f32>) -> tensor<1024xf32>
    %9230 = stablehlo.multiply %9229, %8725 : tensor<1024xf32>
    %9231 = stablehlo.convert %8798 : tensor<f32>
    %9232 = stablehlo.broadcast_in_dim %9231, dims = [] : (tensor<f32>) -> tensor<1x1x1024x256xf32>
    %9233 = stablehlo.multiply %9232, %8728 : tensor<1x1x1024x256xf32>
    %9234 = stablehlo.convert %8798 : tensor<f32>
    %9235 = stablehlo.broadcast_in_dim %9234, dims = [] : (tensor<f32>) -> tensor<3x3x256x256xf32>
    %9236 = stablehlo.multiply %9235, %8731 : tensor<3x3x256x256xf32>
    %9237 = stablehlo.convert %8798 : tensor<f32>
    %9238 = stablehlo.broadcast_in_dim %9237, dims = [] : (tensor<f32>) -> tensor<1x1x256x1024xf32>
    %9239 = stablehlo.multiply %9238, %8734 : tensor<1x1x256x1024xf32>
    %9240 = stablehlo.convert %8798 : tensor<f32>
    %9241 = stablehlo.broadcast_in_dim %9240, dims = [] : (tensor<f32>) -> tensor<256xf32>
    %9242 = stablehlo.multiply %9241, %8737 : tensor<256xf32>
    %9243 = stablehlo.convert %8798 : tensor<f32>
    %9244 = stablehlo.broadcast_in_dim %9243, dims = [] : (tensor<f32>) -> tensor<256xf32>
    %9245 = stablehlo.multiply %9244, %8740 : tensor<256xf32>
    %9246 = stablehlo.convert %8798 : tensor<f32>
    %9247 = stablehlo.broadcast_in_dim %9246, dims = [] : (tensor<f32>) -> tensor<256xf32>
    %9248 = stablehlo.multiply %9247, %8743 : tensor<256xf32>
    %9249 = stablehlo.convert %8798 : tensor<f32>
    %9250 = stablehlo.broadcast_in_dim %9249, dims = [] : (tensor<f32>) -> tensor<256xf32>
    %9251 = stablehlo.multiply %9250, %8746 : tensor<256xf32>
    %9252 = stablehlo.convert %8798 : tensor<f32>
    %9253 = stablehlo.broadcast_in_dim %9252, dims = [] : (tensor<f32>) -> tensor<1024xf32>
    %9254 = stablehlo.multiply %9253, %8749 : tensor<1024xf32>
    %9255 = stablehlo.convert %8798 : tensor<f32>
    %9256 = stablehlo.broadcast_in_dim %9255, dims = [] : (tensor<f32>) -> tensor<1024xf32>
    %9257 = stablehlo.multiply %9256, %8752 : tensor<1024xf32>
    %9258 = stablehlo.convert %8798 : tensor<f32>
    %9259 = stablehlo.broadcast_in_dim %9258, dims = [] : (tensor<f32>) -> tensor<1x1x1024x256xf32>
    %9260 = stablehlo.multiply %9259, %8755 : tensor<1x1x1024x256xf32>
    %9261 = stablehlo.convert %8798 : tensor<f32>
    %9262 = stablehlo.broadcast_in_dim %9261, dims = [] : (tensor<f32>) -> tensor<3x3x256x256xf32>
    %9263 = stablehlo.multiply %9262, %8758 : tensor<3x3x256x256xf32>
    %9264 = stablehlo.convert %8798 : tensor<f32>
    %9265 = stablehlo.broadcast_in_dim %9264, dims = [] : (tensor<f32>) -> tensor<1x1x256x1024xf32>
    %9266 = stablehlo.multiply %9265, %8761 : tensor<1x1x256x1024xf32>
    %9267 = stablehlo.convert %8798 : tensor<f32>
    %9268 = stablehlo.broadcast_in_dim %9267, dims = [] : (tensor<f32>) -> tensor<1000xf32>
    %9269 = stablehlo.multiply %9268, %8764 : tensor<1000xf32>
    %9270 = stablehlo.convert %8798 : tensor<f32>
    %9271 = stablehlo.broadcast_in_dim %9270, dims = [] : (tensor<f32>) -> tensor<2048x1000xf32>
    %9272 = stablehlo.multiply %9271, %8767 : tensor<2048x1000xf32>
    %9273 = stablehlo.convert %8798 : tensor<f32>
    %9274 = stablehlo.broadcast_in_dim %9273, dims = [] : (tensor<f32>) -> tensor<64xf32>
    %9275 = stablehlo.multiply %9274, %8770 : tensor<64xf32>
    %9276 = stablehlo.convert %8798 : tensor<f32>
    %9277 = stablehlo.broadcast_in_dim %9276, dims = [] : (tensor<f32>) -> tensor<64xf32>
    %9278 = stablehlo.multiply %9277, %8773 : tensor<64xf32>
    %9279 = stablehlo.convert %8798 : tensor<f32>
    %9280 = stablehlo.broadcast_in_dim %9279, dims = [] : (tensor<f32>) -> tensor<7x7x3x64xf32>
    %9281 = stablehlo.multiply %9280, %8776 : tensor<7x7x3x64xf32>
    %c_567 = stablehlo.constant dense<2147483647> : tensor<i32>
    %9282 = stablehlo.compare  LT, %arg323, %c_567,  SIGNED : (tensor<i32>, tensor<i32>) -> tensor<i1>
    %c_568 = stablehlo.constant dense<1> : tensor<i32>
    %9283 = stablehlo.add %arg323, %c_568 : tensor<i32>
    %9284 = call @_where_14(%9282, %9283, %c_567) : (tensor<i1>, tensor<i32>, tensor<i32>) -> tensor<i32>
    %9285 = stablehlo.add %arg1, %8801 : tensor<64xf32>
    %9286 = stablehlo.add %arg2, %8804 : tensor<64xf32>
    %9287 = stablehlo.add %arg3, %8807 : tensor<64xf32>
    %9288 = stablehlo.add %arg4, %8810 : tensor<64xf32>
    %9289 = stablehlo.add %arg5, %8813 : tensor<256xf32>
    %9290 = stablehlo.add %arg6, %8816 : tensor<256xf32>
    %9291 = stablehlo.add %arg7, %8819 : tensor<1x1x64x64xf32>
    %9292 = stablehlo.add %arg8, %8822 : tensor<3x3x64x64xf32>
    %9293 = stablehlo.add %arg9, %8825 : tensor<1x1x64x256xf32>
    %9294 = stablehlo.add %arg10, %8828 : tensor<1x1x64x256xf32>
    %9295 = stablehlo.add %arg11, %8831 : tensor<256xf32>
    %9296 = stablehlo.add %arg12, %8834 : tensor<256xf32>
    %9297 = stablehlo.add %arg13, %8837 : tensor<64xf32>
    %9298 = stablehlo.add %arg14, %8840 : tensor<64xf32>
    %9299 = stablehlo.add %arg15, %8843 : tensor<64xf32>
    %9300 = stablehlo.add %arg16, %8846 : tensor<64xf32>
    %9301 = stablehlo.add %arg17, %8849 : tensor<256xf32>
    %9302 = stablehlo.add %arg18, %8852 : tensor<256xf32>
    %9303 = stablehlo.add %arg19, %8855 : tensor<1x1x256x64xf32>
    %9304 = stablehlo.add %arg20, %8858 : tensor<3x3x64x64xf32>
    %9305 = stablehlo.add %arg21, %8861 : tensor<1x1x64x256xf32>
    %9306 = stablehlo.add %arg22, %8864 : tensor<256xf32>
    %9307 = stablehlo.add %arg23, %8867 : tensor<256xf32>
    %9308 = stablehlo.add %arg24, %8870 : tensor<256xf32>
    %9309 = stablehlo.add %arg25, %8873 : tensor<256xf32>
    %9310 = stablehlo.add %arg26, %8876 : tensor<1024xf32>
    %9311 = stablehlo.add %arg27, %8879 : tensor<1024xf32>
    %9312 = stablehlo.add %arg28, %8882 : tensor<1x1x1024x256xf32>
    %9313 = stablehlo.add %arg29, %8885 : tensor<3x3x256x256xf32>
    %9314 = stablehlo.add %arg30, %8888 : tensor<1x1x256x1024xf32>
    %9315 = stablehlo.add %arg31, %8891 : tensor<256xf32>
    %9316 = stablehlo.add %arg32, %8894 : tensor<256xf32>
    %9317 = stablehlo.add %arg33, %8897 : tensor<256xf32>
    %9318 = stablehlo.add %arg34, %8900 : tensor<256xf32>
    %9319 = stablehlo.add %arg35, %8903 : tensor<1024xf32>
    %9320 = stablehlo.add %arg36, %8906 : tensor<1024xf32>
    %9321 = stablehlo.add %arg37, %8909 : tensor<1x1x1024x256xf32>
    %9322 = stablehlo.add %arg38, %8912 : tensor<3x3x256x256xf32>
    %9323 = stablehlo.add %arg39, %8915 : tensor<1x1x256x1024xf32>
    %9324 = stablehlo.add %arg40, %8918 : tensor<256xf32>
    %9325 = stablehlo.add %arg41, %8921 : tensor<256xf32>
    %9326 = stablehlo.add %arg42, %8924 : tensor<256xf32>
    %9327 = stablehlo.add %arg43, %8927 : tensor<256xf32>
    %9328 = stablehlo.add %arg44, %8930 : tensor<1024xf32>
    %9329 = stablehlo.add %arg45, %8933 : tensor<1024xf32>
    %9330 = stablehlo.add %arg46, %8936 : tensor<1x1x1024x256xf32>
    %9331 = stablehlo.add %arg47, %8939 : tensor<3x3x256x256xf32>
    %9332 = stablehlo.add %arg48, %8942 : tensor<1x1x256x1024xf32>
    %9333 = stablehlo.add %arg49, %8945 : tensor<512xf32>
    %9334 = stablehlo.add %arg50, %8948 : tensor<512xf32>
    %9335 = stablehlo.add %arg51, %8951 : tensor<512xf32>
    %9336 = stablehlo.add %arg52, %8954 : tensor<512xf32>
    %9337 = stablehlo.add %arg53, %8957 : tensor<2048xf32>
    %9338 = stablehlo.add %arg54, %8960 : tensor<2048xf32>
    %9339 = stablehlo.add %arg55, %8963 : tensor<1x1x1024x512xf32>
    %9340 = stablehlo.add %arg56, %8966 : tensor<3x3x512x512xf32>
    %9341 = stablehlo.add %arg57, %8969 : tensor<1x1x512x2048xf32>
    %9342 = stablehlo.add %arg58, %8972 : tensor<1x1x1024x2048xf32>
    %9343 = stablehlo.add %arg59, %8975 : tensor<2048xf32>
    %9344 = stablehlo.add %arg60, %8978 : tensor<2048xf32>
    %9345 = stablehlo.add %arg61, %8981 : tensor<512xf32>
    %9346 = stablehlo.add %arg62, %8984 : tensor<512xf32>
    %9347 = stablehlo.add %arg63, %8987 : tensor<512xf32>
    %9348 = stablehlo.add %arg64, %8990 : tensor<512xf32>
    %9349 = stablehlo.add %arg65, %8993 : tensor<2048xf32>
    %9350 = stablehlo.add %arg66, %8996 : tensor<2048xf32>
    %9351 = stablehlo.add %arg67, %8999 : tensor<1x1x2048x512xf32>
    %9352 = stablehlo.add %arg68, %9002 : tensor<3x3x512x512xf32>
    %9353 = stablehlo.add %arg69, %9005 : tensor<1x1x512x2048xf32>
    %9354 = stablehlo.add %arg70, %9008 : tensor<512xf32>
    %9355 = stablehlo.add %arg71, %9011 : tensor<512xf32>
    %9356 = stablehlo.add %arg72, %9014 : tensor<512xf32>
    %9357 = stablehlo.add %arg73, %9017 : tensor<512xf32>
    %9358 = stablehlo.add %arg74, %9020 : tensor<2048xf32>
    %9359 = stablehlo.add %arg75, %9023 : tensor<2048xf32>
    %9360 = stablehlo.add %arg76, %9026 : tensor<1x1x2048x512xf32>
    %9361 = stablehlo.add %arg77, %9029 : tensor<3x3x512x512xf32>
    %9362 = stablehlo.add %arg78, %9032 : tensor<1x1x512x2048xf32>
    %9363 = stablehlo.add %arg79, %9035 : tensor<64xf32>
    %9364 = stablehlo.add %arg80, %9038 : tensor<64xf32>
    %9365 = stablehlo.add %arg81, %9041 : tensor<64xf32>
    %9366 = stablehlo.add %arg82, %9044 : tensor<64xf32>
    %9367 = stablehlo.add %arg83, %9047 : tensor<256xf32>
    %9368 = stablehlo.add %arg84, %9050 : tensor<256xf32>
    %9369 = stablehlo.add %arg85, %9053 : tensor<1x1x256x64xf32>
    %9370 = stablehlo.add %arg86, %9056 : tensor<3x3x64x64xf32>
    %9371 = stablehlo.add %arg87, %9059 : tensor<1x1x64x256xf32>
    %9372 = stablehlo.add %arg88, %9062 : tensor<128xf32>
    %9373 = stablehlo.add %arg89, %9065 : tensor<128xf32>
    %9374 = stablehlo.add %arg90, %9068 : tensor<128xf32>
    %9375 = stablehlo.add %arg91, %9071 : tensor<128xf32>
    %9376 = stablehlo.add %arg92, %9074 : tensor<512xf32>
    %9377 = stablehlo.add %arg93, %9077 : tensor<512xf32>
    %9378 = stablehlo.add %arg94, %9080 : tensor<1x1x256x128xf32>
    %9379 = stablehlo.add %arg95, %9083 : tensor<3x3x128x128xf32>
    %9380 = stablehlo.add %arg96, %9086 : tensor<1x1x128x512xf32>
    %9381 = stablehlo.add %arg97, %9089 : tensor<1x1x256x512xf32>
    %9382 = stablehlo.add %arg98, %9092 : tensor<512xf32>
    %9383 = stablehlo.add %arg99, %9095 : tensor<512xf32>
    %9384 = stablehlo.add %arg100, %9098 : tensor<128xf32>
    %9385 = stablehlo.add %arg101, %9101 : tensor<128xf32>
    %9386 = stablehlo.add %arg102, %9104 : tensor<128xf32>
    %9387 = stablehlo.add %arg103, %9107 : tensor<128xf32>
    %9388 = stablehlo.add %arg104, %9110 : tensor<512xf32>
    %9389 = stablehlo.add %arg105, %9113 : tensor<512xf32>
    %9390 = stablehlo.add %arg106, %9116 : tensor<1x1x512x128xf32>
    %9391 = stablehlo.add %arg107, %9119 : tensor<3x3x128x128xf32>
    %9392 = stablehlo.add %arg108, %9122 : tensor<1x1x128x512xf32>
    %9393 = stablehlo.add %arg109, %9125 : tensor<128xf32>
    %9394 = stablehlo.add %arg110, %9128 : tensor<128xf32>
    %9395 = stablehlo.add %arg111, %9131 : tensor<128xf32>
    %9396 = stablehlo.add %arg112, %9134 : tensor<128xf32>
    %9397 = stablehlo.add %arg113, %9137 : tensor<512xf32>
    %9398 = stablehlo.add %arg114, %9140 : tensor<512xf32>
    %9399 = stablehlo.add %arg115, %9143 : tensor<1x1x512x128xf32>
    %9400 = stablehlo.add %arg116, %9146 : tensor<3x3x128x128xf32>
    %9401 = stablehlo.add %arg117, %9149 : tensor<1x1x128x512xf32>
    %9402 = stablehlo.add %arg118, %9152 : tensor<128xf32>
    %9403 = stablehlo.add %arg119, %9155 : tensor<128xf32>
    %9404 = stablehlo.add %arg120, %9158 : tensor<128xf32>
    %9405 = stablehlo.add %arg121, %9161 : tensor<128xf32>
    %9406 = stablehlo.add %arg122, %9164 : tensor<512xf32>
    %9407 = stablehlo.add %arg123, %9167 : tensor<512xf32>
    %9408 = stablehlo.add %arg124, %9170 : tensor<1x1x512x128xf32>
    %9409 = stablehlo.add %arg125, %9173 : tensor<3x3x128x128xf32>
    %9410 = stablehlo.add %arg126, %9176 : tensor<1x1x128x512xf32>
    %9411 = stablehlo.add %arg127, %9179 : tensor<256xf32>
    %9412 = stablehlo.add %arg128, %9182 : tensor<256xf32>
    %9413 = stablehlo.add %arg129, %9185 : tensor<256xf32>
    %9414 = stablehlo.add %arg130, %9188 : tensor<256xf32>
    %9415 = stablehlo.add %arg131, %9191 : tensor<1024xf32>
    %9416 = stablehlo.add %arg132, %9194 : tensor<1024xf32>
    %9417 = stablehlo.add %arg133, %9197 : tensor<1x1x512x256xf32>
    %9418 = stablehlo.add %arg134, %9200 : tensor<3x3x256x256xf32>
    %9419 = stablehlo.add %arg135, %9203 : tensor<1x1x256x1024xf32>
    %9420 = stablehlo.add %arg136, %9206 : tensor<1x1x512x1024xf32>
    %9421 = stablehlo.add %arg137, %9209 : tensor<1024xf32>
    %9422 = stablehlo.add %arg138, %9212 : tensor<1024xf32>
    %9423 = stablehlo.add %arg139, %9215 : tensor<256xf32>
    %9424 = stablehlo.add %arg140, %9218 : tensor<256xf32>
    %9425 = stablehlo.add %arg141, %9221 : tensor<256xf32>
    %9426 = stablehlo.add %arg142, %9224 : tensor<256xf32>
    %9427 = stablehlo.add %arg143, %9227 : tensor<1024xf32>
    %9428 = stablehlo.add %arg144, %9230 : tensor<1024xf32>
    %9429 = stablehlo.add %arg145, %9233 : tensor<1x1x1024x256xf32>
    %9430 = stablehlo.add %arg146, %9236 : tensor<3x3x256x256xf32>
    %9431 = stablehlo.add %arg147, %9239 : tensor<1x1x256x1024xf32>
    %9432 = stablehlo.add %arg148, %9242 : tensor<256xf32>
    %9433 = stablehlo.add %arg149, %9245 : tensor<256xf32>
    %9434 = stablehlo.add %arg150, %9248 : tensor<256xf32>
    %9435 = stablehlo.add %arg151, %9251 : tensor<256xf32>
    %9436 = stablehlo.add %arg152, %9254 : tensor<1024xf32>
    %9437 = stablehlo.add %arg153, %9257 : tensor<1024xf32>
    %9438 = stablehlo.add %arg154, %9260 : tensor<1x1x1024x256xf32>
    %9439 = stablehlo.add %arg155, %9263 : tensor<3x3x256x256xf32>
    %9440 = stablehlo.add %arg156, %9266 : tensor<1x1x256x1024xf32>
    %9441 = stablehlo.add %arg157, %9269 : tensor<1000xf32>
    %9442 = stablehlo.add %arg158, %9272 : tensor<2048x1000xf32>
    %9443 = stablehlo.add %arg159, %9275 : tensor<64xf32>
    %9444 = stablehlo.add %arg160, %9278 : tensor<64xf32>
    %9445 = stablehlo.add %arg161, %9281 : tensor<7x7x3x64xf32>
    %c_569 = stablehlo.constant dense<1> : tensor<i32>
    %9446 = stablehlo.add %arg0, %c_569 : tensor<i32>
    %9447 = stablehlo.broadcast_in_dim %7491, dims = [] : (tensor<f32>) -> tensor<1xf32>
    %9448 = stablehlo.broadcast_in_dim %22, dims = [] : (tensor<f32>) -> tensor<1xf32>
    %9449 = stablehlo.broadcast_in_dim %7492, dims = [] : (tensor<f32>) -> tensor<1xf32>
    return %9446, %9285, %9286, %9287, %9288, %9289, %9290, %9291, %9292, %9293, %9294, %9295, %9296, %9297, %9298, %9299, %9300, %9301, %9302, %9303, %9304, %9305, %9306, %9307, %9308, %9309, %9310, %9311, %9312, %9313, %9314, %9315, %9316, %9317, %9318, %9319, %9320, %9321, %9322, %9323, %9324, %9325, %9326, %9327, %9328, %9329, %9330, %9331, %9332, %9333, %9334, %9335, %9336, %9337, %9338, %9339, %9340, %9341, %9342, %9343, %9344, %9345, %9346, %9347, %9348, %9349, %9350, %9351, %9352, %9353, %9354, %9355, %9356, %9357, %9358, %9359, %9360, %9361, %9362, %9363, %9364, %9365, %9366, %9367, %9368, %9369, %9370, %9371, %9372, %9373, %9374, %9375, %9376, %9377, %9378, %9379, %9380, %9381, %9382, %9383, %9384, %9385, %9386, %9387, %9388, %9389, %9390, %9391, %9392, %9393, %9394, %9395, %9396, %9397, %9398, %9399, %9400, %9401, %9402, %9403, %9404, %9405, %9406, %9407, %9408, %9409, %9410, %9411, %9412, %9413, %9414, %9415, %9416, %9417, %9418, %9419, %9420, %9421, %9422, %9423, %9424, %9425, %9426, %9427, %9428, %9429, %9430, %9431, %9432, %9433, %9434, %9435, %9436, %9437, %9438, %9439, %9440, %9441, %9442, %9443, %9444, %9445, %7813, %7816, %7819, %7822, %7825, %7828, %7831, %7834, %7837, %7840, %7843, %7846, %7849, %7852, %7855, %7858, %7861, %7864, %7867, %7870, %7873, %7876, %7879, %7882, %7885, %7888, %7891, %7894, %7897, %7900, %7903, %7906, %7909, %7912, %7915, %7918, %7921, %7924, %7927, %7930, %7933, %7936, %7939, %7942, %7945, %7948, %7951, %7954, %7957, %7960, %7963, %7966, %7969, %7972, %7975, %7978, %7981, %7984, %7987, %7990, %7993, %7996, %7999, %8002, %8005, %8008, %8011, %8014, %8017, %8020, %8023, %8026, %8029, %8032, %8035, %8038, %8041, %8044, %8047, %8050, %8053, %8056, %8059, %8062, %8065, %8068, %8071, %8074, %8077, %8080, %8083, %8086, %8089, %8092, %8095, %8098, %8101, %8104, %8107, %8110, %8113, %8116, %8119, %8122, %8125, %8128, %8131, %8134, %8137, %8140, %8143, %8146, %8149, %8152, %8155, %8158, %8161, %8164, %8167, %8170, %8173, %8176, %8179, %8182, %8185, %8188, %8191, %8194, %8197, %8200, %8203, %8206, %8209, %8212, %8215, %8218, %8221, %8224, %8227, %8230, %8233, %8236, %8239, %8242, %8245, %8248, %8251, %8254, %8257, %8260, %8263, %8266, %8269, %8272, %8275, %8278, %8281, %8284, %8287, %8290, %8293, %9284, %7600, %7602, %7604, %7606, %7608, %7610, %7612, %7614, %7616, %7618, %7620, %7622, %7624, %7626, %7628, %7630, %7632, %7634, %7636, %7638, %7640, %7642, %7644, %7646, %7648, %7650, %7652, %7654, %7656, %7658, %7660, %7662, %7664, %7666, %7668, %7670, %7672, %7674, %7676, %7678, %7680, %7682, %7684, %7686, %7688, %7690, %7692, %7694, %7696, %7698, %7700, %7702, %7704, %7706, %7708, %7710, %7712, %7714, %7716, %7718, %7720, %7722, %7724, %7726, %7728, %7730, %7732, %7734, %7736, %7738, %7740, %7742, %7744, %7746, %7748, %7750, %7752, %7754, %7756, %7758, %7760, %7762, %7764, %7766, %7768, %7770, %7772, %7774, %7776, %7778, %7780, %7782, %7784, %7786, %7788, %7790, %7792, %7794, %7796, %7798, %7800, %7802, %7804, %7806, %7808, %7810, %9447, %9448, %9449 : tensor<i32>, tensor<64xf32>, tensor<64xf32>, tensor<64xf32>, tensor<64xf32>, tensor<256xf32>, tensor<256xf32>, tensor<1x1x64x64xf32>, tensor<3x3x64x64xf32>, tensor<1x1x64x256xf32>, tensor<1x1x64x256xf32>, tensor<256xf32>, tensor<256xf32>, tensor<64xf32>, tensor<64xf32>, tensor<64xf32>, tensor<64xf32>, tensor<256xf32>, tensor<256xf32>, tensor<1x1x256x64xf32>, tensor<3x3x64x64xf32>, tensor<1x1x64x256xf32>, tensor<256xf32>, tensor<256xf32>, tensor<256xf32>, tensor<256xf32>, tensor<1024xf32>, tensor<1024xf32>, tensor<1x1x1024x256xf32>, tensor<3x3x256x256xf32>, tensor<1x1x256x1024xf32>, tensor<256xf32>, tensor<256xf32>, tensor<256xf32>, tensor<256xf32>, tensor<1024xf32>, tensor<1024xf32>, tensor<1x1x1024x256xf32>, tensor<3x3x256x256xf32>, tensor<1x1x256x1024xf32>, tensor<256xf32>, tensor<256xf32>, tensor<256xf32>, tensor<256xf32>, tensor<1024xf32>, tensor<1024xf32>, tensor<1x1x1024x256xf32>, tensor<3x3x256x256xf32>, tensor<1x1x256x1024xf32>, tensor<512xf32>, tensor<512xf32>, tensor<512xf32>, tensor<512xf32>, tensor<2048xf32>, tensor<2048xf32>, tensor<1x1x1024x512xf32>, tensor<3x3x512x512xf32>, tensor<1x1x512x2048xf32>, tensor<1x1x1024x2048xf32>, tensor<2048xf32>, tensor<2048xf32>, tensor<512xf32>, tensor<512xf32>, tensor<512xf32>, tensor<512xf32>, tensor<2048xf32>, tensor<2048xf32>, tensor<1x1x2048x512xf32>, tensor<3x3x512x512xf32>, tensor<1x1x512x2048xf32>, tensor<512xf32>, tensor<512xf32>, tensor<512xf32>, tensor<512xf32>, tensor<2048xf32>, tensor<2048xf32>, tensor<1x1x2048x512xf32>, tensor<3x3x512x512xf32>, tensor<1x1x512x2048xf32>, tensor<64xf32>, tensor<64xf32>, tensor<64xf32>, tensor<64xf32>, tensor<256xf32>, tensor<256xf32>, tensor<1x1x256x64xf32>, tensor<3x3x64x64xf32>, tensor<1x1x64x256xf32>, tensor<128xf32>, tensor<128xf32>, tensor<128xf32>, tensor<128xf32>, tensor<512xf32>, tensor<512xf32>, tensor<1x1x256x128xf32>, tensor<3x3x128x128xf32>, tensor<1x1x128x512xf32>, tensor<1x1x256x512xf32>, tensor<512xf32>, tensor<512xf32>, tensor<128xf32>, tensor<128xf32>, tensor<128xf32>, tensor<128xf32>, tensor<512xf32>, tensor<512xf32>, tensor<1x1x512x128xf32>, tensor<3x3x128x128xf32>, tensor<1x1x128x512xf32>, tensor<128xf32>, tensor<128xf32>, tensor<128xf32>, tensor<128xf32>, tensor<512xf32>, tensor<512xf32>, tensor<1x1x512x128xf32>, tensor<3x3x128x128xf32>, tensor<1x1x128x512xf32>, tensor<128xf32>, tensor<128xf32>, tensor<128xf32>, tensor<128xf32>, tensor<512xf32>, tensor<512xf32>, tensor<1x1x512x128xf32>, tensor<3x3x128x128xf32>, tensor<1x1x128x512xf32>, tensor<256xf32>, tensor<256xf32>, tensor<256xf32>, tensor<256xf32>, tensor<1024xf32>, tensor<1024xf32>, tensor<1x1x512x256xf32>, tensor<3x3x256x256xf32>, tensor<1x1x256x1024xf32>, tensor<1x1x512x1024xf32>, tensor<1024xf32>, tensor<1024xf32>, tensor<256xf32>, tensor<256xf32>, tensor<256xf32>, tensor<256xf32>, tensor<1024xf32>, tensor<1024xf32>, tensor<1x1x1024x256xf32>, tensor<3x3x256x256xf32>, tensor<1x1x256x1024xf32>, tensor<256xf32>, tensor<256xf32>, tensor<256xf32>, tensor<256xf32>, tensor<1024xf32>, tensor<1024xf32>, tensor<1x1x1024x256xf32>, tensor<3x3x256x256xf32>, tensor<1x1x256x1024xf32>, tensor<1000xf32>, tensor<2048x1000xf32>, tensor<64xf32>, tensor<64xf32>, tensor<7x7x3x64xf32>, tensor<64xf32>, tensor<64xf32>, tensor<64xf32>, tensor<64xf32>, tensor<256xf32>, tensor<256xf32>, tensor<1x1x64x64xf32>, tensor<3x3x64x64xf32>, tensor<1x1x64x256xf32>, tensor<1x1x64x256xf32>, tensor<256xf32>, tensor<256xf32>, tensor<64xf32>, tensor<64xf32>, tensor<64xf32>, tensor<64xf32>, tensor<256xf32>, tensor<256xf32>, tensor<1x1x256x64xf32>, tensor<3x3x64x64xf32>, tensor<1x1x64x256xf32>, tensor<256xf32>, tensor<256xf32>, tensor<256xf32>, tensor<256xf32>, tensor<1024xf32>, tensor<1024xf32>, tensor<1x1x1024x256xf32>, tensor<3x3x256x256xf32>, tensor<1x1x256x1024xf32>, tensor<256xf32>, tensor<256xf32>, tensor<256xf32>, tensor<256xf32>, tensor<1024xf32>, tensor<1024xf32>, tensor<1x1x1024x256xf32>, tensor<3x3x256x256xf32>, tensor<1x1x256x1024xf32>, tensor<256xf32>, tensor<256xf32>, tensor<256xf32>, tensor<256xf32>, tensor<1024xf32>, tensor<1024xf32>, tensor<1x1x1024x256xf32>, tensor<3x3x256x256xf32>, tensor<1x1x256x1024xf32>, tensor<512xf32>, tensor<512xf32>, tensor<512xf32>, tensor<512xf32>, tensor<2048xf32>, tensor<2048xf32>, tensor<1x1x1024x512xf32>, tensor<3x3x512x512xf32>, tensor<1x1x512x2048xf32>, tensor<1x1x1024x2048xf32>, tensor<2048xf32>, tensor<2048xf32>, tensor<512xf32>, tensor<512xf32>, tensor<512xf32>, tensor<512xf32>, tensor<2048xf32>, tensor<2048xf32>, tensor<1x1x2048x512xf32>, tensor<3x3x512x512xf32>, tensor<1x1x512x2048xf32>, tensor<512xf32>, tensor<512xf32>, tensor<512xf32>, tensor<512xf32>, tensor<2048xf32>, tensor<2048xf32>, tensor<1x1x2048x512xf32>, tensor<3x3x512x512xf32>, tensor<1x1x512x2048xf32>, tensor<64xf32>, tensor<64xf32>, tensor<64xf32>, tensor<64xf32>, tensor<256xf32>, tensor<256xf32>, tensor<1x1x256x64xf32>, tensor<3x3x64x64xf32>, tensor<1x1x64x256xf32>, tensor<128xf32>, tensor<128xf32>, tensor<128xf32>, tensor<128xf32>, tensor<512xf32>, tensor<512xf32>, tensor<1x1x256x128xf32>, tensor<3x3x128x128xf32>, tensor<1x1x128x512xf32>, tensor<1x1x256x512xf32>, tensor<512xf32>, tensor<512xf32>, tensor<128xf32>, tensor<128xf32>, tensor<128xf32>, tensor<128xf32>, tensor<512xf32>, tensor<512xf32>, tensor<1x1x512x128xf32>, tensor<3x3x128x128xf32>, tensor<1x1x128x512xf32>, tensor<128xf32>, tensor<128xf32>, tensor<128xf32>, tensor<128xf32>, tensor<512xf32>, tensor<512xf32>, tensor<1x1x512x128xf32>, tensor<3x3x128x128xf32>, tensor<1x1x128x512xf32>, tensor<128xf32>, tensor<128xf32>, tensor<128xf32>, tensor<128xf32>, tensor<512xf32>, tensor<512xf32>, tensor<1x1x512x128xf32>, tensor<3x3x128x128xf32>, tensor<1x1x128x512xf32>, tensor<256xf32>, tensor<256xf32>, tensor<256xf32>, tensor<256xf32>, tensor<1024xf32>, tensor<1024xf32>, tensor<1x1x512x256xf32>, tensor<3x3x256x256xf32>, tensor<1x1x256x1024xf32>, tensor<1x1x512x1024xf32>, tensor<1024xf32>, tensor<1024xf32>, tensor<256xf32>, tensor<256xf32>, tensor<256xf32>, tensor<256xf32>, tensor<1024xf32>, tensor<1024xf32>, tensor<1x1x1024x256xf32>, tensor<3x3x256x256xf32>, tensor<1x1x256x1024xf32>, tensor<256xf32>, tensor<256xf32>, tensor<256xf32>, tensor<256xf32>, tensor<1024xf32>, tensor<1024xf32>, tensor<1x1x1024x256xf32>, tensor<3x3x256x256xf32>, tensor<1x1x256x1024xf32>, tensor<1000xf32>, tensor<2048x1000xf32>, tensor<64xf32>, tensor<64xf32>, tensor<7x7x3x64xf32>, tensor<i32>, tensor<64xf32>, tensor<64xf32>, tensor<64xf32>, tensor<64xf32>, tensor<256xf32>, tensor<256xf32>, tensor<256xf32>, tensor<256xf32>, tensor<64xf32>, tensor<64xf32>, tensor<64xf32>, tensor<64xf32>, tensor<256xf32>, tensor<256xf32>, tensor<256xf32>, tensor<256xf32>, tensor<256xf32>, tensor<256xf32>, tensor<1024xf32>, tensor<1024xf32>, tensor<256xf32>, tensor<256xf32>, tensor<256xf32>, tensor<256xf32>, tensor<1024xf32>, tensor<1024xf32>, tensor<256xf32>, tensor<256xf32>, tensor<256xf32>, tensor<256xf32>, tensor<1024xf32>, tensor<1024xf32>, tensor<512xf32>, tensor<512xf32>, tensor<512xf32>, tensor<512xf32>, tensor<2048xf32>, tensor<2048xf32>, tensor<2048xf32>, tensor<2048xf32>, tensor<512xf32>, tensor<512xf32>, tensor<512xf32>, tensor<512xf32>, tensor<2048xf32>, tensor<2048xf32>, tensor<512xf32>, tensor<512xf32>, tensor<512xf32>, tensor<512xf32>, tensor<2048xf32>, tensor<2048xf32>, tensor<64xf32>, tensor<64xf32>, tensor<64xf32>, tensor<64xf32>, tensor<256xf32>, tensor<256xf32>, tensor<128xf32>, tensor<128xf32>, tensor<128xf32>, tensor<128xf32>, tensor<512xf32>, tensor<512xf32>, tensor<512xf32>, tensor<512xf32>, tensor<128xf32>, tensor<128xf32>, tensor<128xf32>, tensor<128xf32>, tensor<512xf32>, tensor<512xf32>, tensor<128xf32>, tensor<128xf32>, tensor<128xf32>, tensor<128xf32>, tensor<512xf32>, tensor<512xf32>, tensor<128xf32>, tensor<128xf32>, tensor<128xf32>, tensor<128xf32>, tensor<512xf32>, tensor<512xf32>, tensor<256xf32>, tensor<256xf32>, tensor<256xf32>, tensor<256xf32>, tensor<1024xf32>, tensor<1024xf32>, tensor<1024xf32>, tensor<1024xf32>, tensor<256xf32>, tensor<256xf32>, tensor<256xf32>, tensor<256xf32>, tensor<1024xf32>, tensor<1024xf32>, tensor<256xf32>, tensor<256xf32>, tensor<256xf32>, tensor<256xf32>, tensor<1024xf32>, tensor<1024xf32>, tensor<64xf32>, tensor<64xf32>, tensor<1xf32>, tensor<1xf32>, tensor<1xf32>
  }
  func.func private @clip(%arg0: tensor<i32>, %arg1: tensor<i32>, %arg2: tensor<f32>) -> tensor<f32> {
    %0 = stablehlo.maximum %arg1, %arg0 : tensor<i32>
    %1 = stablehlo.convert %0 : (tensor<i32>) -> tensor<f32>
    %2 = stablehlo.minimum %arg2, %1 : tensor<f32>
    return %2 : tensor<f32>
  }
  func.func private @_where(%arg0: tensor<i1>, %arg1: tensor<f32>, %arg2: tensor<f32>) -> tensor<f32> {
    %0 = stablehlo.select %arg0, %arg1, %arg2 : tensor<i1>, tensor<f32>
    return %0 : tensor<f32>
  }
  func.func private @relu(%arg0: tensor<256x112x112x64xf16>) -> tensor<256x112x112x64xf16> {
    %cst = stablehlo.constant dense<0.000000e+00> : tensor<f16>
    %0 = stablehlo.broadcast_in_dim %cst, dims = [] : (tensor<f16>) -> tensor<256x112x112x64xf16>
    %1 = stablehlo.maximum %arg0, %0 : tensor<256x112x112x64xf16>
    return %1 : tensor<256x112x112x64xf16>
  }
  func.func private @relu_0(%arg0: tensor<256x56x56x64xf16>) -> tensor<256x56x56x64xf16> {
    %cst = stablehlo.constant dense<0.000000e+00> : tensor<f16>
    %0 = stablehlo.broadcast_in_dim %cst, dims = [] : (tensor<f16>) -> tensor<256x56x56x64xf16>
    %1 = stablehlo.maximum %arg0, %0 : tensor<256x56x56x64xf16>
    return %1 : tensor<256x56x56x64xf16>
  }
  func.func private @relu_1(%arg0: tensor<256x56x56x256xf16>) -> tensor<256x56x56x256xf16> {
    %cst = stablehlo.constant dense<0.000000e+00> : tensor<f16>
    %0 = stablehlo.broadcast_in_dim %cst, dims = [] : (tensor<f16>) -> tensor<256x56x56x256xf16>
    %1 = stablehlo.maximum %arg0, %0 : tensor<256x56x56x256xf16>
    return %1 : tensor<256x56x56x256xf16>
  }
  func.func private @relu_2(%arg0: tensor<256x56x56x128xf16>) -> tensor<256x56x56x128xf16> {
    %cst = stablehlo.constant dense<0.000000e+00> : tensor<f16>
    %0 = stablehlo.broadcast_in_dim %cst, dims = [] : (tensor<f16>) -> tensor<256x56x56x128xf16>
    %1 = stablehlo.maximum %arg0, %0 : tensor<256x56x56x128xf16>
    return %1 : tensor<256x56x56x128xf16>
  }
  func.func private @relu_3(%arg0: tensor<256x28x28x128xf16>) -> tensor<256x28x28x128xf16> {
    %cst = stablehlo.constant dense<0.000000e+00> : tensor<f16>
    %0 = stablehlo.broadcast_in_dim %cst, dims = [] : (tensor<f16>) -> tensor<256x28x28x128xf16>
    %1 = stablehlo.maximum %arg0, %0 : tensor<256x28x28x128xf16>
    return %1 : tensor<256x28x28x128xf16>
  }
  func.func private @relu_4(%arg0: tensor<256x28x28x512xf16>) -> tensor<256x28x28x512xf16> {
    %cst = stablehlo.constant dense<0.000000e+00> : tensor<f16>
    %0 = stablehlo.broadcast_in_dim %cst, dims = [] : (tensor<f16>) -> tensor<256x28x28x512xf16>
    %1 = stablehlo.maximum %arg0, %0 : tensor<256x28x28x512xf16>
    return %1 : tensor<256x28x28x512xf16>
  }
  func.func private @relu_5(%arg0: tensor<256x28x28x256xf16>) -> tensor<256x28x28x256xf16> {
    %cst = stablehlo.constant dense<0.000000e+00> : tensor<f16>
    %0 = stablehlo.broadcast_in_dim %cst, dims = [] : (tensor<f16>) -> tensor<256x28x28x256xf16>
    %1 = stablehlo.maximum %arg0, %0 : tensor<256x28x28x256xf16>
    return %1 : tensor<256x28x28x256xf16>
  }
  func.func private @relu_6(%arg0: tensor<256x14x14x256xf16>) -> tensor<256x14x14x256xf16> {
    %cst = stablehlo.constant dense<0.000000e+00> : tensor<f16>
    %0 = stablehlo.broadcast_in_dim %cst, dims = [] : (tensor<f16>) -> tensor<256x14x14x256xf16>
    %1 = stablehlo.maximum %arg0, %0 : tensor<256x14x14x256xf16>
    return %1 : tensor<256x14x14x256xf16>
  }
  func.func private @relu_7(%arg0: tensor<256x14x14x1024xf16>) -> tensor<256x14x14x1024xf16> {
    %cst = stablehlo.constant dense<0.000000e+00> : tensor<f16>
    %0 = stablehlo.broadcast_in_dim %cst, dims = [] : (tensor<f16>) -> tensor<256x14x14x1024xf16>
    %1 = stablehlo.maximum %arg0, %0 : tensor<256x14x14x1024xf16>
    return %1 : tensor<256x14x14x1024xf16>
  }
  func.func private @relu_8(%arg0: tensor<256x14x14x512xf16>) -> tensor<256x14x14x512xf16> {
    %cst = stablehlo.constant dense<0.000000e+00> : tensor<f16>
    %0 = stablehlo.broadcast_in_dim %cst, dims = [] : (tensor<f16>) -> tensor<256x14x14x512xf16>
    %1 = stablehlo.maximum %arg0, %0 : tensor<256x14x14x512xf16>
    return %1 : tensor<256x14x14x512xf16>
  }
  func.func private @relu_9(%arg0: tensor<256x7x7x512xf16>) -> tensor<256x7x7x512xf16> {
    %cst = stablehlo.constant dense<0.000000e+00> : tensor<f16>
    %0 = stablehlo.broadcast_in_dim %cst, dims = [] : (tensor<f16>) -> tensor<256x7x7x512xf16>
    %1 = stablehlo.maximum %arg0, %0 : tensor<256x7x7x512xf16>
    return %1 : tensor<256x7x7x512xf16>
  }
  func.func private @relu_10(%arg0: tensor<256x7x7x2048xf16>) -> tensor<256x7x7x2048xf16> {
    %cst = stablehlo.constant dense<0.000000e+00> : tensor<f16>
    %0 = stablehlo.broadcast_in_dim %cst, dims = [] : (tensor<f16>) -> tensor<256x7x7x2048xf16>
    %1 = stablehlo.maximum %arg0, %0 : tensor<256x7x7x2048xf16>
    return %1 : tensor<256x7x7x2048xf16>
  }
  func.func private @log_softmax(%arg0: tensor<256x1000xf16>) -> (tensor<256x1000xf16>, tensor<256x1000xf16>, tensor<256x1xf16>) {
    %cst = stablehlo.constant dense<0xFC00> : tensor<f16>
    %0 = stablehlo.reduce(%arg0 init: %cst) applies stablehlo.maximum across dimensions = [1] : (tensor<256x1000xf16>, tensor<f16>) -> tensor<256xf16>
    %1 = stablehlo.reshape %0 : (tensor<256xf16>) -> tensor<256x1xf16>
    %2 = stablehlo.broadcast_in_dim %1, dims = [0, 1] : (tensor<256x1xf16>) -> tensor<256x1000xf16>
    %3 = stablehlo.compare  EQ, %arg0, %2,  FLOAT : (tensor<256x1000xf16>, tensor<256x1000xf16>) -> tensor<256x1000xi1>
    %4 = stablehlo.convert %3 : (tensor<256x1000xi1>) -> tensor<256x1000xf16>
    %cst_0 = stablehlo.constant dense<0.000000e+00> : tensor<f16>
    %5 = stablehlo.reduce(%4 init: %cst_0) applies stablehlo.add across dimensions = [1] : (tensor<256x1000xf16>, tensor<f16>) -> tensor<256xf16>
    %cst_1 = stablehlo.constant dense<0xFC00> : tensor<f16>
    %6 = stablehlo.broadcast_in_dim %cst_1, dims = [] : (tensor<f16>) -> tensor<256xf16>
    %7 = stablehlo.maximum %6, %0 : tensor<256xf16>
    %8 = stablehlo.compare  EQ, %0, %7,  FLOAT : (tensor<256xf16>, tensor<256xf16>) -> tensor<256xi1>
    %cst_2 = stablehlo.constant dense<1.000000e+00> : tensor<f16>
    %9 = stablehlo.broadcast_in_dim %cst_2, dims = [] : (tensor<f16>) -> tensor<256xf16>
    %cst_3 = stablehlo.constant dense<0.000000e+00> : tensor<f16>
    %10 = stablehlo.broadcast_in_dim %cst_3, dims = [] : (tensor<f16>) -> tensor<256xf16>
    %11 = stablehlo.select %8, %9, %10 : tensor<256xi1>, tensor<256xf16>
    %12 = stablehlo.broadcast_in_dim %cst_1, dims = [] : (tensor<f16>) -> tensor<256xf16>
    %13 = stablehlo.compare  EQ, %12, %7,  FLOAT : (tensor<256xf16>, tensor<256xf16>) -> tensor<256xi1>
    %cst_4 = stablehlo.constant dense<2.000000e+00> : tensor<f16>
    %14 = stablehlo.broadcast_in_dim %cst_4, dims = [] : (tensor<f16>) -> tensor<256xf16>
    %15 = stablehlo.broadcast_in_dim %cst_2, dims = [] : (tensor<f16>) -> tensor<256xf16>
    %16 = stablehlo.select %13, %14, %15 : tensor<256xi1>, tensor<256xf16>
    %17 = stablehlo.divide %11, %16 : tensor<256xf16>
    %18 = stablehlo.broadcast_in_dim %7, dims = [0] : (tensor<256xf16>) -> tensor<256x1xf16>
    %19 = stablehlo.broadcast_in_dim %18, dims = [0, 1] : (tensor<256x1xf16>) -> tensor<256x1000xf16>
    %20 = stablehlo.subtract %arg0, %19 : tensor<256x1000xf16>
    %21 = stablehlo.exponential %20 : tensor<256x1000xf16>
    %22 = stablehlo.convert %21 : (tensor<256x1000xf16>) -> tensor<256x1000xf32>
    %cst_5 = stablehlo.constant dense<0.000000e+00> : tensor<f32>
    %23 = stablehlo.reduce(%22 init: %cst_5) applies stablehlo.add across dimensions = [1] : (tensor<256x1000xf32>, tensor<f32>) -> tensor<256xf32>
    %24 = stablehlo.broadcast_in_dim %23, dims = [0] : (tensor<256xf32>) -> tensor<256x1xf32>
    %25 = stablehlo.convert %24 : (tensor<256x1xf32>) -> tensor<256x1xf16>
    %26 = stablehlo.log %25 : tensor<256x1xf16>
    %27 = stablehlo.broadcast_in_dim %26, dims = [0, 1] : (tensor<256x1xf16>) -> tensor<256x1000xf16>
    %28 = stablehlo.subtract %20, %27 : tensor<256x1000xf16>
    return %28, %21, %25 : tensor<256x1000xf16>, tensor<256x1000xf16>, tensor<256x1xf16>
  }
  func.func private @log_softmax_11(%arg0: tensor<256x1000xf16>, %arg1: tensor<256x1xf16>, %arg2: tensor<256x1000xf16>) -> tensor<256x1000xf16> {
    %0 = stablehlo.negate %arg2 : tensor<256x1000xf16>
    %cst = stablehlo.constant dense<0.000000e+00> : tensor<f16>
    %1 = stablehlo.reduce(%0 init: %cst) applies stablehlo.add across dimensions = [1] : (tensor<256x1000xf16>, tensor<f16>) -> tensor<256xf16>
    %2 = stablehlo.reshape %1 : (tensor<256xf16>) -> tensor<256x1xf16>
    %3 = stablehlo.divide %2, %arg1 : tensor<256x1xf16>
    %4 = stablehlo.convert %3 : (tensor<256x1xf16>) -> tensor<256x1xf32>
    %cst_0 = stablehlo.constant dense<0.000000e+00> : tensor<f32>
    %5 = stablehlo.reduce(%4 init: %cst_0) applies stablehlo.add across dimensions = [1] : (tensor<256x1xf32>, tensor<f32>) -> tensor<256xf32>
    %6 = stablehlo.broadcast_in_dim %5, dims = [0] : (tensor<256xf32>) -> tensor<256x1000xf32>
    %7 = stablehlo.convert %6 : (tensor<256x1000xf32>) -> tensor<256x1000xf16>
    %8 = stablehlo.multiply %7, %arg0 : tensor<256x1000xf16>
    %9 = stablehlo.add %arg2, %8 : tensor<256x1000xf16>
    return %9 : tensor<256x1000xf16>
  }
  func.func private @log_softmax_12(%arg0: tensor<256x1000xf16>) -> tensor<256x1000xf16> {
    %cst = stablehlo.constant dense<0xFC00> : tensor<f16>
    %0 = stablehlo.reduce(%arg0 init: %cst) applies stablehlo.maximum across dimensions = [1] : (tensor<256x1000xf16>, tensor<f16>) -> tensor<256xf16>
    %cst_0 = stablehlo.constant dense<0xFC00> : tensor<f16>
    %1 = stablehlo.broadcast_in_dim %cst_0, dims = [] : (tensor<f16>) -> tensor<256xf16>
    %2 = stablehlo.maximum %1, %0 : tensor<256xf16>
    %3 = stablehlo.broadcast_in_dim %2, dims = [0] : (tensor<256xf16>) -> tensor<256x1xf16>
    %4 = stablehlo.broadcast_in_dim %3, dims = [0, 1] : (tensor<256x1xf16>) -> tensor<256x1000xf16>
    %5 = stablehlo.subtract %arg0, %4 : tensor<256x1000xf16>
    %6 = stablehlo.exponential %5 : tensor<256x1000xf16>
    %7 = stablehlo.convert %6 : (tensor<256x1000xf16>) -> tensor<256x1000xf32>
    %cst_1 = stablehlo.constant dense<0.000000e+00> : tensor<f32>
    %8 = stablehlo.reduce(%7 init: %cst_1) applies stablehlo.add across dimensions = [1] : (tensor<256x1000xf32>, tensor<f32>) -> tensor<256xf32>
    %9 = stablehlo.broadcast_in_dim %8, dims = [0] : (tensor<256xf32>) -> tensor<256x1xf32>
    %10 = stablehlo.convert %9 : (tensor<256x1xf32>) -> tensor<256x1xf16>
    %11 = stablehlo.log %10 : tensor<256x1xf16>
    %12 = stablehlo.broadcast_in_dim %11, dims = [0, 1] : (tensor<256x1xf16>) -> tensor<256x1000xf16>
    %13 = stablehlo.subtract %5, %12 : tensor<256x1000xf16>
    return %13 : tensor<256x1000xf16>
  }
  func.func private @argmax(%arg0: tensor<256x1000xf16>) -> tensor<256xi32> {
    %0 = stablehlo.iota dim = 1 : tensor<256x1000xi32>
    %cst = stablehlo.constant dense<0xFC00> : tensor<f16>
    %c = stablehlo.constant dense<0> : tensor<i32>
    %1:2 = stablehlo.reduce(%arg0 init: %cst), (%0 init: %c) across dimensions = [1] : (tensor<256x1000xf16>, tensor<256x1000xi32>, tensor<f16>, tensor<i32>) -> (tensor<256xf16>, tensor<256xi32>)
     reducer(%arg1: tensor<f16>, %arg3: tensor<f16>) (%arg2: tensor<i32>, %arg4: tensor<i32>)  {
      %2 = stablehlo.compare  GT, %arg1, %arg3,  FLOAT : (tensor<f16>, tensor<f16>) -> tensor<i1>
      %3 = stablehlo.compare  NE, %arg1, %arg1,  FLOAT : (tensor<f16>, tensor<f16>) -> tensor<i1>
      %4 = stablehlo.or %2, %3 : tensor<i1>
      %5 = stablehlo.compare  EQ, %arg1, %arg3,  FLOAT : (tensor<f16>, tensor<f16>) -> tensor<i1>
      %6 = stablehlo.compare  LT, %arg2, %arg4,  SIGNED : (tensor<i32>, tensor<i32>) -> tensor<i1>
      %7 = stablehlo.and %5, %6 : tensor<i1>
      %8 = stablehlo.or %4, %7 : tensor<i1>
      %9 = stablehlo.select %4, %arg1, %arg3 : tensor<i1>, tensor<f16>
      %10 = stablehlo.select %8, %arg2, %arg4 : tensor<i1>, tensor<i32>
      stablehlo.return %9, %10 : tensor<f16>, tensor<i32>
    }
    return %1#1 : tensor<256xi32>
  }
  func.func private @clip_13(%arg0: tensor<i32>, %arg1: tensor<i32>, %arg2: tensor<f32>) -> tensor<f32> {
    %0 = stablehlo.convert %arg1 : tensor<i32>
    %1 = stablehlo.maximum %0, %arg0 : tensor<i32>
    %2 = stablehlo.convert %1 : (tensor<i32>) -> tensor<f32>
    %3 = stablehlo.minimum %arg2, %2 : tensor<f32>
    return %3 : tensor<f32>
  }
  func.func private @_where_14(%arg0: tensor<i1>, %arg1: tensor<i32>, %arg2: tensor<i32>) -> tensor<i32> {
    %0 = stablehlo.select %arg0, %arg1, %arg2 : tensor<i1>, tensor<i32>
    return %0 : tensor<i32>
  }
}
